pretrained/CiteSeer_pretrained.pt (torch, 239399 bytes, 4 tensors)

convs.0.bias f4 [16]
0.07300135 0.09596325 0.07822261 -0.042215474 0.1192237 0.111400925 0.1186995 0.084764615
0.072457805 0.08394064 0.090323165 0.12758411 0.09017918 0.13699032 -0.03404151 0.09568022
00000000: bb81 953d 6188 c43d 2d33 a03d 22ea 2cbd
00000010: 8e2b f43d 2b26 e43d b918 f33d 1299 ad3d
00000020: c264 943d 12e9 ab3d 5afb b83d 69a5 023e
00000030: ddaf b83d 3147 0c3e 1c6f 0bbd fef3 c33d

convs.0.lin.weight f4 [16, 3703]
-0.2950144 -0.19911654 0.0017946182 -0.006650663 -0.03915989 -0.01946639 -0.0037205704 4.783377e-07
-1.1790699e-07 -0.07821571 0.0014881955 0.12834679 -0.042348374 -0.21359508 0.10431926 -0.075186454
-0.025696522 -0.13350667 0.025456248 0.07935615 0.010591474 -0.23548818 -0.6204115 -0.02076631
0.19580099 0.058413606 -0.047030512 -0.013025911 0.19756472 -0.32300362 0.04046493 -0.19909412
0.20278426 0.30722502 0.117407806 0.10175503 -0.10840204 -0.21134317 0.09840319 -0.022719953
0.2262478 0.24005824 -0.15134653 -0.013029066 -0.20416673 0.19331375 -0.2839028 -0.03453438
0.028063023 0.01236821 -2.9114256e-07 0.07702431 0.04843927 0.066624194 -0.046413537 -0.10593346
-0.0054517523 0.058299873 -0.0056462563 0.07926194 -0.005376122 -0.18338032 4.4172796e-07 -0.02133509
0.0111147985 -1.1565725 0.059641805 -0.03633019 -7.1321114e-07 0.19524844 -0.015440738 -0.046072215
-0.036827274 -0.056635533 0.04138801 -0.54485726 -0.057894047 -0.0855967 -0.011240719 -3.1929463e-07
-0.0076356875 0.018357027 -0.17914352 -0.02493097 0.24784192 -0.12887952 -0.010193254 0.20799261
1.914191e-07 -0.0064721117 0.023848105 -0.06469633 -0.05602313 0.044165626 0.02372409 0.20404424
0.09266898 0.08535347 -0.059706688 -6.9844003e-07 4.2663524e-07 0.0024768985 0.32771456 0.022108415
0.0810818 0.11314455 -0.04218014 0.008552376 -0.027055949 -0.10815832 0.255845 0.12422649
-0.072106235 -0.062021736 0.37868968 3.3063776e-07 1.0633106e-07 6.79159e-07 0.05006425 -0.027481101
-0.0025375837 0.06775396 -0.052998967 -0.010808183 -0.17790383 -0.19284685 5.050378e-08 -0.037741482
-0.10270063 0.23451754 -0.041631177 -0.1253762 0.10951412 0.010984065 -0.018943464 -0.06585986
0.013358918 0.093793646 0.08520564 -0.097868 0.30754322 0.0873989 0.38540736 0.086465895
-1.2724529e-07 -3.2117748e-07 -0.0055258838 -0.0911251 -0.26969594 -0.13979472 -0.00548488 0.011178492
4.0847223e-07 1.7708878e-07 0.0039715897 -0.10612597 0.004800292 -4.7351538e-08 0.053050414 -0.022418117
-0.011924708 0.008876619 -0.047083467 0.15457901 -0.0068077636 -0.080270715 -0.41471633 0.04937958
0.6030091 0.90618324 0.08789911 0.0987449 0.0320166 -0.025471108 0.20376444 0.24582803
-0.020574497 -0.5733691 -0.11070087 0.27000317 9.0396657e-07 -6.5675565e-08 0.13889153 5.253637e-07
-0.06745051 0.00093443156 -0.009701624 -0.0072687236 -0.04991856 -0.1422531 0.055581417 1.9989439e-07
0.10653325 0.013608682 -0.0076120235 0.0026070399 -0.11891485 -0.52659374 0.0070997206 0.12969676
-0.41731918 0.053088877 0.043454435 -0.025762845 -0.025683165 0.001102706 0.026290331 -7.060834e-07
0.20965554 -0.061152797 -0.06044544 -0.03474216 0.22193326 -0.16788253 -0.06007053 -0.112962574
-0.058740675 -0.0003604403 -0.001066127 0.0064179744 -0.016397057 0.07563248 -0.13497221 0.057755835
-0.16763355 -0.12747735 -0.064853646 -0.03587093 -0.06996931 0.1897175 0.15927787 -0.009380463
-0.08719264 -0.017289463 0.08639593 0.04944286 0.73713017 -0.13545674 0.020473016 -0.032693896
0.2850802 0.25211373 0.008814141 0.010216507 0.016180946 -0.016210621 0.012761219 -0.53069377
-0.10514348 -0.3161659 0.019495623 0.12502152 0.0058223787 -0.12959811 0.39612567 -0.002429336
00000000: 210c 97be 35e5 4bbe 6539 eb3a ceed d9bb
00000010: 1f66 20bd fb77 9fbc d0d4 73bb 1e67 0035
00000020: 0e34 fdb3 8f2f a0bd 8e0f c33a 576d 033e
00000030: 7d75 2dbd abb8 5abe 56a5 d53d 5bfb 99bd
00000040: 8381 d2bc f9b5 08be 9f89 d03c 7a85 a23d
00000050: dd87 2d3c d023 71be 4ad3 1ebf 1c1e aabc
00000060: 0e80 483e 1b43 6f3d 11a3 40bd a16a 55bc
00000070: 684e 4a3e bb60 a5be 8ebe 253d 54df 4bbe
00000080: ada6 4f3e 994c 9d3e 8173 f03d f164 d03d
00000090: e401 debd 586a 58be 9d87 c93d 321f babc
000000a0: 81ad 673e d4d1 753e 96fa 1abe dd77 55bc
000000b0: 1511 51be 0af4 453e b55b 91be ec73 0dbd
000000c0: 6de4 e53c 08a4 4a3c 544e 9cb4 ecbe 9d3d
000000d0: 4268 463d 4472 883d 1f1c 3ebd a4f3 d8bd
000000e0: 9da4 b2bb d9cb 6e3d 3b04 b9bb 1654 a23d
000000f0: 2e2a b0bb 0dc8 3bbe a126 ed34 edc6 aebc
00000100: d81a 363c 910a 94bf f74a 743d f7ce 14bd
00000110: 7f73 3fb5 35ef 473e 26fb 7cbc 38b6 3cbd
00000120: 32d8 16bd a9fa 67bd 7986 293d c47b 0bbf
00000130: 4f22 6dbd 534d afbd fe2a 38bc 856b abb4
00000140: ca34 fabb 7a61 963c 6671 37be 093c ccbc
00000150: 46ca 7d3e fef8 03be 9b01 27bc 04fc 543e
00000160: e288 4d34 0214 d4bb 1a5d c33c 827f 84bd
00000170: 8278 65bd 04e7 343d 0659 c23c f9f0 503e
00000180: 3cc9 bd3d cdcd ae3d 008f 74bd 6f7c 3bb5
00000190: 4d0c e534 7653 223b 34ca a73e b51c b53c
000001a0: 370e a63d 54b8 e73d 15c5 2cbd 441f 0c3c
000001b0: 70a4 ddbc 1c82 ddbd 1efe 823e 756a fe3d
000001c0: 6fac 93bd 810a 7ebd 9de3 c13e 8282 b134
000001d0: 1e58 e433 734f 3635 2c10 4d3d 0c20 e1bc
000001e0: 974d 26bb 97c2 8a3d 7215 59bd ce14 31bc
000001f0: 6c2c 36be a579 45be 7ee9 5833 d096 1abd
00000200: b554 d2bd 5e25 703e 7485 2abd 9e62 00be
00000210: f048 e03d 82f6 333c 532f 9bbc 89e1 86bd
00000220: 5ddf 5a3c e216 c03d 4b80 ae3d 056f c8bd
00000230: 4e76 9d3e 32fe b23d 1d54 c53e 0815 b13d
00000240: eba0 08b4 4c6e acb4 7912 b5bb cc9f babd
00000250: 9615 8abe 5926 0fbe 82ba b3bb fe25 373c
00000260: ff4b db34 cb25 3e34 1c24 823b 9358 d9bd
00000270: c54b 9d3b 915f 4bb3 644b 593d 33a6 b7bc
00000280: da5f 43bc 3d6f 113c 98da 40bd f649 1e3e
00000290: a913 dfbb f964 a4bd b355 d4be 3e42 4a3d
000002a0: ce5e 1a3f a0fb 673f 7304 b43d c43a ca3d
000002b0: d723 033d c9a8 d0bc a0a7 503e 58ba 7b3e
000002c0: d98b a8bc 51c8 12bf 23b7 e2bd db3d 8a3e
000002d0: 1ca8 7235 8609 8db3 9539 0e3e b806 0d35
000002e0: 7e23 8abd a4f4 743a 8ff3 1ebc 792e eebb
000002f0: 6777 4cbd ccaa 11be 57a9 633d 8da2 5634
00000300: 1b2e da3d f3f6 5e3c 486e f9bb dfda 2a3b
00000310: a189 f3bd d9ce 06bf c6a4 e83b 3acf 043e
00000320: dcaa d5be b973 593d 47fd 313d 9a0c d3bc
00000330: 8065 d2bc ac88 903a d25e d73c af89 3db5
00000340: f1af 563e 5b7b 7abd a395 77bd cc4d 0ebd
00000350: 7942 633e 66e9 2bbe 840c 76bd ec58 e7bd
00000360: 109a 70bd 7af9 bcb9 49bd 8bba df4d d23b
00000370: 1f53 86bc 34e5 9a3d 2836 0abe 6291 6c3d
00000380: 21a8 2bbe 6c89 02be fdd1 84bd 65ed 12bd
00000390: 124c 8fbd 4e45 423e bd19 233e 83b0 19bc
000003a0: 0e92 b2bd a2a2 8dbc 59f0 b03d 9984 4a3d
000003b0: 90b4 3c3f 2cb5 0abe 07b7 a73c 09ea 05bd
000003c0: 08f6 913e 0d15 813e 3069 103c 2363 273c
000003d0: e78d 843c 23cc 84bc 6f14 513c 8cdb 07bf
000003e0: 7755 d7bd 7fe0 a1be 49b5 9f3c a405 003e
000003f0: a7c9 be3b 5eb5 04be fcd0 ca3e 7f35 1fbb

convs.1.bias f4 [6]
0.98906195 -0.1885917 0.6335689 -0.04967495 -0.09265915 -0.8449982
00000000: 2a33 7d3f 2f1e 41be 9231 223f f677 4bbd
00000010: 15c4 bdbd cd51 58bf

convs.1.lin.weight f4 [6, 16]
-1.8149197 -2.0442007 1.9120404 -8.519261e-06 -1.9795885 -2.0256016 -2.0117292 -1.3407756
2.0730999 -1.5423424 -1.9063259 1.7275074 -1.5179869 -1.9903994 3.6531683e-06 1.7054379
2.0782516 -2.1593196 1.968984 -5.35021e-06 -1.9546261 1.7102954 1.8469949 -1.6090112
0.9649079 -1.8152862 2.1142087 1.2152953 -1.8655989 2.1556327 -7.69883e-06 -1.8338982
-1.9523276 1.9287562 -1.8126816 1.6107495e-05 -2.0973818 -1.9889948 1.6716616 1.776969
-1.7603412 -1.99605 2.2181096 -1.2047436 1.8993461 -0.17654991 -1.6108517e-05 -2.0392063
-1.6436111 -2.2391548 -1.5373336 -1.8338609e-06 1.6058459 1.8758107 1.5611588 1.9712195
-1.4260374 1.9824533 -2.0431578 -2.054287 1.724692 1.6009719 2.2683975e-05 -1.8781735
-1.8133755 1.8584634 -1.8734919 -2.2339975e-07 1.7479151 1.9480444 -2.0286734 -1.0241339
-1.8070424 -1.7870395 -1.845737 1.9691346 -1.7023373 1.8045564 -1.4219051e-05 1.7781982
1.9312866 1.7904718 1.7162616 -8.87987e-06 1.3608177 -1.7588212 -0.11563665 -1.7690386
1.8589666 1.9853764 1.8337588 -2.2149255 1.7090616 -1.9731808 8.427381e-06 1.7701594
00000000: 4a4f e8bf 2fd4 02c0 bdbd f43f f3ed 0eb7
00000010: 2863 fdbf 75a3 01c0 2cc0 00c0 899e abbf
00000020: abad 0440 7a6b c5bf 7d02 f4bf f61e dd3f
00000030: 654d c2bf 68c5 febf f428 7536 ca4b da3f
00000040: 1302 0540 4b32 0ac0 ab07 fc3f f485 b3b6
00000050: 3031 fabf f6ea da3f 546a ec3f 14f4 cdbf
00000060: 3404 773f 4c5b e8bf 324f 0740 cc8e 9b3f
00000070: f2cb eebf e3f5 0940 392a 01b7 2dbd eabf
00000080: dfe5 f9bf 7ce1 f63f f305 e8bf 951e 8737
00000090: 813b 06c0 6297 febf 02f9 d53f b873 e33f
000000a0: dc52 e1bf 917e ffbf 82f5 0d40 0a35 9abf
000000b0: c61d f33f 80c9 34be c720 87b7 5b82 02c0
000000c0: d961 d2bf 504e 0fc0 59c7 c4bf fb22 f6b5
000000d0: 5c8c cd3f 911a f03f 0dd4 c73f ec50 fc3f
000000e0: 6588 b6bf 08c1 fd3f 19c3 02c0 7079 03c0
000000f0: b5c2 dc3f a6ec cc3f 7749 be37 fd67 f0bf
00000100: b01c e8bf 21e2 ed3f 95ce efbf a8df 6fb4
00000110: afbb df3f 8559 f93f c9d5 01c0 d216 83bf
00000120: 2a4d e7bf b6bd e4bf 1c41 ecbf 9a0c fc3f
00000130: 30e6 d9bf b4fb e63f 5c8e 6eb7 009c e33f
00000140: 6634 f73f 2e2e e53f 76ae db3f c0fa 14b7
00000150: 462f ae3f 0e21 e1bf e8d2 ecbd db6f e2bf
00000160: 9ef2 ed3f d020 fe3f 9cb8 ea3f 57c1 0dc0
00000170: 88c2 da3f 3091 fcbf 5363 0d37 9594 e23f
