pretrained/Cora_pretrained.pt (torch, 94159 bytes, 4 tensors)

convs.0.bias f4 [16]
000000 1a c3 1c 3e 16 1b ed 3d 5a dc 3a 3e f8 73 46 bd
       0.153088 0.11577432 0.1824812 -0.04845044
000010 d6 d0 c9 b8 93 3f 14 3e 85 5f af bc 0a 4f 46 3e
       -9.6233256e-05 0.14477377 -0.021407852 0.19366089
000020 26 fb 95 3d 58 b4 cd 3d 34 df 90 3d 01 72 26 3e
       0.073232934 0.100441635 0.070738226 0.16254427
000030 de e4 b2 3d 84 62 a5 3d 7f 0a 58 3e 30 51 07 3e
       0.08735059 0.08075431 0.21097754 0.13214564

convs.0.lin.weight f4 [16, 1433]
000000 6f 73 54 3d 37 c7 93 3d 9c fc 9a 3e 64 e4 d9 bd
       0.0518679 0.072157316 0.3027085 -0.10639265
000010 d6 9d 27 bf 8a 45 0e be 7c 3e 4a 3e c2 77 70 3d
       -0.65475214 -0.13893715 0.19750398 0.05870796
000020 cd a3 97 bc e7 28 b1 3d f6 fa 98 3c 8f fe d0 3d
       -0.018510723 0.0865038 0.018674355 0.10204803
000030 60 5e 80 bc 35 5a 0b be 72 36 50 bc 8f af 3b 3d
       -0.015670002 -0.1360863 -0.012708293 0.045821723
000040 e9 98 3a 3d 80 90 cd bc 2d 19 74 3c 4a 8c d5 3e
       0.045555983 -0.025093317 0.0148985805 0.41708595
000050 62 66 cb 34 b1 3e 01 bd 06 5d a9 bd 12 d5 aa bd
       3.788619e-07 -0.031553928 -0.08269696 -0.08341421
000060 7b a8 85 bc 49 11 dc bd 4b b4 a8 bc 00 7c 61 3c
       -0.01631569 -0.107454844 -0.020593783 0.013762474
000070 64 49 cf bd e4 a1 78 bc 24 1e ad bd 5f a5 1e bd
       -0.1012142 -0.0151753165 -0.084530145 -0.03873193
000080 e1 50 de bd 89 60 0f bc ec 66 fc bd 72 8e 0d bd
       -0.1085527 -0.008751043 -0.12324318 -0.034559675
000090 78 6a 13 3e b0 64 2c 3d c2 19 aa 3e b1 47 a2 3d
       0.14396083 0.04208821 0.33222777 0.0792383
0000a0 7b f2 98 be d9 41 81 3d a4 9b 3d 3d 4d bb 26 3d
       -0.29872498 0.063113876 0.04629101 0.040705968
0000b0 c7 ca 8a 3e 82 70 70 bb 89 da a8 3c aa c4 f7 bd
       0.27107832 -0.0036688154 0.020612018 -0.120980576
0000c0 98 5c 8e bd 0d 8d 2e 3b fa 8f 65 be 21 3e a6 3f
       -0.069512546 0.0026634366 -0.22418204 1.298771
0000d0 f2 7f da be b8 0d 98 bb 63 ec be bd 0b cf 26 3d
       -0.4267574 -0.0046403073 -0.09322431 0.040724795
0000e0 85 17 2b bb c3 56 f4 3c 2b 72 a8 3e e8 d4 80 be
       -0.0026106548 0.029826527 0.32899603 -0.25162435
0000f0 5c a3 ce 34 f5 b4 35 3f 79 5f 00 bd fc 4e 90 bd
       3.848935e-07 0.70979244 -0.03134105 -0.07046315
000100 a6 cc 9d be 6c e9 be 3e cf 4d f9 3c a4 cf 2c bd
       -0.30820197 0.37287462 0.03043261 -0.04219021
000110 e2 1e 7c 3b 49 8b a4 3b 7e f1 39 be 25 94 ea bc
       0.0038470556 0.005021487 -0.18158528 -0.028635094
000120 cc 2e b2 bd 06 2b f7 bd ef f8 95 bd 0e 8c a7 be
       -0.08700332 -0.12068753 -0.07322871 -0.3272404
000130 b2 cd 6c be 4d 6d 0e 3f 8e 50 a1 bd 2c 0d 39 bd
       -0.23125342 0.5563553 -0.07876693 -0.045178577
000140 c9 17 71 bd 21 2c 5e be 95 f6 af bd 06 48 e4 bc
       -0.058860574 -0.21696521 -0.08591954 -0.027866375
000150 a4 ef bd bd 0f 24 0e bf 83 8c 8c be 0a e3 16 3e
       -0.092742234 -0.5552377 -0.27450952 0.14735046
000160 dd 4e 24 3e 64 60 21 3f 46 65 91 bb c4 77 4a be
       0.16045709 0.63037705 -0.0044371216 -0.1977225
000170 7d 1a 65 3e c8 12 9f be 8a 15 8e be 4a eb 7f 3e
       0.22373386 -0.31069016 -0.27750808 0.249921
000180 6a ca d6 bc 8e fa c0 3d d7 3a 42 be 6d f1 c7 3f
       -0.026219565 0.094227895 -0.18967758 1.5620552
000190 8b 5b b2 3d 4a 59 0a bd 96 9c a9 3e 30 ff 99 be
       0.08708867 -0.03377656 0.33127278 -0.30077505
0001a0 0f ef 4e 3e cd 08 00 bd c6 9e dc bc 67 b8 19 be
       0.20208381 -0.031258393 -0.026931178 -0.1501175
0001b0 91 c4 be be 99 9b 78 bd c8 4e 8f bd 6f 57 b5 3d
       -0.37259343 -0.060695264 -0.06997448 0.08854567
0001c0 89 71 ac 3c ef a3 29 3b 71 34 c1 bd d2 89 d6 3d
       0.021050232 0.0025885066 -0.094338305 0.10475506
0001d0 d1 cf 7c bd 7c 3e ab bc 59 0c 23 3f 81 63 3f 3d
       -0.061721627 -0.020903818 0.63690716 0.046725754
0001e0 6d ff 71 be 12 e4 ab be 26 74 10 bd 4c 02 6a be
       -0.23632593 -0.3357244 -0.035267018 -0.22852439
0001f0 42 40 f8 bd 87 3f ca 3c 54 42 93 3e 4a 4b d7 3d
       -0.12121631 0.024688495 0.28761542 0.10512407
000200 89 ac a9 ba 51 7c 11 3e f1 4e 87 be a1 4e ac 3e
       -0.0012945096 0.14207579 -0.26427415 0.3365374
000210 bf c2 00 be a7 c4 ea 3d 00 d5 28 3e c4 5b 8c 3d
       -0.1257429 0.1146329 0.16487503 0.068534404
000220 ad 13 f0 bd 6f 25 0b bd 59 6d 15 3d 13 b7 eb 3c
       -0.11722503 -0.033971246 0.036481235 0.02877382
000230 19 f1 6d 3f fc 3a 37 3d 56 aa 77 3d 83 28 53 be
       0.9294601 0.044733986 0.06046518 -0.20620923
000240 76 6d d8 3c 58 9e a3 b4 29 92 0b be 6e 0a 10 bd
       0.026419383 -3.0476326e-07 -0.13629974 -0.035166197
000250 37 6b 07 bd cf 1b 10 3f 7a c3 5a be a8 55 b6 bc
       -0.033061232 0.5629243 -0.21363631 -0.022257641
000260 36 6e d4 3d 12 77 7c 3e 4b 0b 9a 3d ea 89 08 3d
       0.103725836 0.24654797 0.07521685 0.03333465
000270 a1 88 57 be a9 93 f7 3d 88 9c 1c 3c 7c 23 41 3d
       -0.21048214 0.12088711 0.009558804 0.04715298
000280 c8 cf ba be 5d 79 54 bd 18 65 d6 3d 89 da 8d 3d
       -0.3648665 -0.051873554 0.10468501 0.06926448
000290 eb de 48 3d 2c cd 67 bc 59 90 88 3a 81 20 0b 3e
       0.049040716 -0.014148038 0.0010418996 0.13586618
0002a0 68 18 31 3f 5a 22 2d 3c 5a ad 32 bd d4 c7 d9 3b
       0.69177866 0.010567272 -0.043622352 0.006646136
0002b0 79 ba d6 3e 20 58 12 be 53 ea 09 be 95 f6 27 3c
       0.41939142 -0.1429143 -0.13468294 0.010251661
0002c0 ba 05 cf be 29 4e 99 3d 59 ce 0e bd 69 68 58 be
       -0.40434057 0.07485611 -0.034864757 -0.2113358
0002d0 cd 4e b4 3a a4 97 08 3e 07 76 8f bd e2 74 88 3d
       0.0013756395 0.13339096 -0.07004934 0.066629186
0002e0 2f 78 42 bc 9e 44 98 3b fa 2a 16 bd 94 a3 31 3f
       -0.011869474 0.0046468517 -0.03666208 0.69390225
0002f0 74 37 3e be 9b 9c 30 be ac dd 0a 3d 6f 2b 6d 3d
       -0.18575841 -0.1724724 0.03390281 0.05790275
000300 a4 9c 88 bc 7e 74 9a 3b aa 8e 3b be bd 4a 09 3c
       -0.016676255 0.004713594 -0.18316141 0.008379635
000310 b1 b8 f8 3d b0 b1 40 3d 1c 45 ef 3d 7a 9f 8c 3d
       0.12144602 0.047044456 0.116831034 0.06866355
000320 56 a2 70 bc b2 1f 6e bd 89 1a 79 bd 90 f3 93 3e
       -0.014687141 -0.058135696 -0.06081632 0.2889676
000330 4a f4 92 3c 78 b2 4e bd aa 96 f2 bc 37 b0 37 be
       0.017938752 -0.05046317 -0.029612858 -0.17938314
000340 aa 49 74 3d a4 96 33 3d 4d ef bb 3d bd a5 89 3d
       0.059640564 0.043844834 0.091765024 0.06721065
000350 96 1d c6 3e 6f a4 90 bd 2a 4f 2f be 91 bb 50 3a
       0.38694447 -0.07062613 -0.17120042 0.000796252
000360 00 31 5d bd 4b 5a e0 be 28 db 78 be 74 39 b5 3c
       -0.05400181 -0.43818888 -0.24302351 0.022122122
000370 a9 e5 b5 3c 70 c8 4c bc 85 5b 8d bd 5c 54 25 bd
       0.022204237 -0.01249896 -0.069022216 -0.040363654
000380 04 bf 4b bd dd 58 7f 3e 47 75 ea bd a8 57 42 bd
       -0.049742714 0.24936242 -0.1144815 -0.047446877
000390 39 ae a7 bd 81 3f e6 3d 8c 96 a7 bb d3 8d 6e be
       -0.08187527 0.11242581 -0.005114382 -0.23296289
0003a0 fe 26 4b 3e 2f b7 c2 3c cd bd 94 be 59 02 88 3d
       0.19839093 0.02376899 -0.29051057 0.06641073
0003b0 e1 ec c5 3c 67 d1 83 bd d6 75 43 be b1 08 8e bd
       0.024160804 -0.06436425 -0.1908792 -0.069352515
0003c0 84 ed 34 bd b2 86 f6 bc e6 76 e8 3c e6 c4 63 bd
       -0.044171825 -0.030093525 0.028377008 -0.0556077
0003d0 e7 49 7b 3d 16 5c be bc 68 9b 13 3d c6 10 02 3d
       0.061349776 -0.02323727 0.03603688 0.031754278
0003e0 a5 77 4c 3d d1 9e c5 3d 0c ec 31 3f 52 32 4b 3c
       0.04991879 0.096494325 0.69500804 0.012402134
0003f0 28 d0 26 bc f4 db e5 3c 0e 05 c9 3d 07 84 8d 3d
       -0.010181464 0.028058983 0.09815417 0.06909948

convs.1.bias f4 [7]
000000 ef e3 08 bf 62 4c 04 be 71 50 70 3e aa 95 4d 3e
       -0.534728 -0.12919763 0.23468186 0.20076624
000010 3b 14 a1 be 08 a7 40 3f 83 17 14 3e
       -0.31460747 0.7525487 0.14462094

convs.1.lin.weight f4 [7, 16]
000000 7d a1 d3 be fa db fc bf a0 e1 d9 3f f5 1c bd b2
       -0.41334143 -1.9754632 1.702198 -2.2015664e-08
000010 f2 57 ce b6 62 ec d3 be dd 57 98 36 2f 76 b5 3f
       -6.1495166e-06 -0.41391283 4.5401816e-06 1.4176692
000020 98 dc e2 3f d1 45 bc bf a1 1e 00 40 1e 09 f7 bf
       1.772357 -1.4708806 2.0018694 -1.9299657
000030 c8 1c 10 40 2f 99 ee bf aa af 8f 3f 3a 96 9f 3f
       2.2517567 -1.8640498 1.1225483 1.246772
000040 be 48 f3 3f 0c db ed bf a9 19 e6 3f 39 e7 91 35
       1.9006574 -1.8582473 1.7976581 1.0870637e-06
000050 f0 30 d5 b6 ba ae 01 c0 ea c6 4a 36 09 c0 07 c0
       -6.3535917e-06 -2.0262895 3.0216129e-06 -2.121096
000060 10 f2 aa bf 81 f8 00 40 d5 0d 57 bf 28 1c cb 3f
       -1.3355122 2.0151675 -0.8400548 1.5867968
000070 37 3d 43 bf a0 c6 12 40 03 67 07 c0 17 94 b9 3f
       -0.7626528 2.293373 -2.1156623 1.4498318
000080 cf 01 de 3f 2e 2a f4 3f b2 b1 e6 bf 3d dd 39 b6
       1.7344302 1.9075372 -1.8022978 -2.7695926e-06
000090 47 8f 14 b5 4c 95 06 40 8b d6 3c b6 8e 44 b2 bf
       -5.534279e-07 2.1028624 -2.8139063e-06 -1.3927171
0000a0 a9 a6 00 c0 6e f8 d5 3f 3e 3b ed bf e2 a7 e4 bf
       -2.0101721 1.671644 -1.8533704 -1.7863734
0000b0 cd 66 f8 3f 3c ec c5 bf 2a 3b e4 bf 60 61 af 3f
       1.9406372 -1.5462718 -1.7830555 1.3701591
0000c0 ba f5 0f c0 2f 9f 08 40 02 c3 cb 3f 72 81 88 37
       -2.249373 2.1347158 1.5918887 1.6272741e-05
0000d0 d6 35 b2 35 59 9a 09 c0 33 3e 81 35 08 15 65 3f
       1.3277702e-06 -2.1500456 9.629351e-07 0.89485216
0000e0 8d 42 08 c0 26 1c ba 3d da ee 00 c0 e7 22 f7 3f
       -2.129062 0.090874 -2.0145783 1.9307526
0000f0 0a d8 00 c0 d9 bf cc bf 09 b4 a0 3f c7 33 d0 3f
       -2.013186 -1.5996047 1.2554942 1.6265801
000100 1d 06 05 40 f2 ba d6 bf 7f a5 df 3f db df d4 b7
       2.0784981 -1.6775801 1.747238 -2.537661e-05
000110 fe a8 45 37 3b ef da 3f 84 0c 65 36 ad cb d8 3f
       1.1781462e-05 1.7104257 3.4130944e-06 1.6937157
000120 a0 f1 ea bf ac 68 d9 bf 70 95 f1 bf 69 4c f6 3f
       -1.8354988 -1.6985068 -1.887373 1.9242069
000130 90 88 a7 bf e2 fc d0 bf b9 d3 ed 3f 41 66 18 c0
       -1.308855 -1.6327174 1.8580238 -2.381241
000140 93 5a ec bf bf 39 cb 3f 7f 28 cc bf cc 10 ee b5
       -1.8465141 1.5876998 -1.5949858 -1.773727e-06
000150 ca 87 a9 b6 28 74 ea bf 60 ae 00 b6 bb 96 e8 bf
       -5.0524004e-06 -1.8316698 -1.9174986e-06 -1.8170999
000160 6f e9 00 40 ec f1 d7 3f 52 67 fe 3f 29 0d e9 3f
       2.0142477 1.6870704 1.9875281 1.8207141
000170 3c 0e b6 bf ed f7 c9 bf 32 34 e6 bf c1 ab 0f c0
       -1.4223094 -1.5778786 -1.7984679 -2.244858
000180 48 ce ec bf 06 6e dc bf f6 40 ed bf 0b c8 7b b4
       -1.8500452 -1.7221076 -1.853545 -2.3448972e-07
000190 4d 36 f5 36 5a 74 d4 3f 5f 25 a2 b7 b6 2c d5 3f
       7.3078904e-06 1.6598008 -1.9329307e-05 1.665427
0001a0 f1 f8 a1 3f 17 09 c6 bf ca d3 cc 3f 12 3b dd bf
       1.2654096 -1.5471524 1.6002133 -1.7283652
0001b0 32 86 ef bf 3c 4f 06 40 1b 19 cc 3f 51 ff 07 c0
       -1.8712828 2.098586 1.5945162 -2.1249583
