pretrained/Cora_GAT_pretrained.pt (torch, 742151 bytes, 10 tensors)

convs.0.att_src f4 [1, 8, 16]
000000 e5 1a 54 be 8d 9a 13 3f 40 41 b6 3e 65 72 fb 3e
       -0.20713384 0.576577 0.35596657 0.49110714
000010 92 7c 5d bd b9 d0 bb be 8b 96 99 be c4 bd 2d 3e
       -0.054073878 -0.3668268 -0.29997668 0.16966921
000020 e5 d4 0b be 10 d9 09 3e 20 90 90 bd 6f 8a c5 be
       -0.13655432 0.13461709 -0.0705874 -0.3858218
000030 6e 76 82 bd d5 d7 b6 3e 6a bd 59 be d6 ed e7 3e
       -0.06370245 0.35711542 -0.21263662 0.45298642
000040 55 a6 e2 3d aa 1e 15 3e 83 15 bb bc f0 8a c4 be
       0.110668816 0.14562479 -0.022837406 -0.3838725
000050 c6 72 ae 3e 0f 19 65 be bf e3 ac 3e 67 e8 50 be
       0.3407194 -0.2237284 0.33767506 -0.20401154
000060 ab ca 89 bd 04 e0 7a be 07 fa 38 bd 2e 3c d7 3d
       -0.06728109 -0.24499518 -0.04516032 0.10509525
000070 ca 40 c1 be f8 ef ff 3e 25 87 a6 be 30 a1 fc 3e
       -0.37744743 0.4998777 -0.32524982 0.49341726
000080 e1 54 46 3e 96 54 42 3e 4f 40 d3 3d 3a cd 32 3c
       0.19368316 0.1897758 0.10315 0.010913188
000090 ae 7c 57 3e c2 11 e9 bd b6 b5 dd bd 55 42 99 be
       0.21043655 -0.1138034 -0.10825674 -0.2993342
0000a0 20 1b 52 3e d8 55 d0 3c 2e a2 a1 3e f1 7c 97 3d
       0.2051816 0.025431558 0.31569046 0.073968776
0000b0 e4 52 8a bd fc 1d 9b 3e e7 09 c1 be 5d 6d 8e 3c
       -0.067540914 0.30296314 -0.37702867 0.017386133
0000c0 29 e5 46 be c9 e9 10 3e 36 d1 bd be 41 a3 59 be
       -0.19423355 0.14151682 -0.37073678 -0.21253683
0000d0 b1 2a 82 3e 4f 78 0e 3b 27 d0 ed 3e 59 e4 a0 be
       0.25423196 0.002173919 0.4644787 -0.31424215
0000e0 57 3e 88 be 41 45 10 3e 2b e8 66 3e 2c e4 81 be
       -0.26610062 0.14088918 0.22549503 -0.25369394
0000f0 be 9e f6 3d fc 64 c6 b9 e6 35 fe 3e 87 1f 5c bb
       0.120419964 -0.00037840742 0.49650496 -0.0033588128
000100 d9 19 4f be 6b ca 90 3e d8 3d fe 3e 34 f9 80 3c
       -0.20224704 0.28279433 0.49656558 0.01574383
000110 1d 25 eb 3e 68 bb db bc 44 8a 8f b7 fd c3 1a b6
       0.45926753 -0.02682276 -1.7111313e-05 -2.3061868e-06
000120 58 1d a5 3e 8f c7 9e 3e 8d 49 8b bd 49 83 31 3d
       0.3224895 0.31011626 -0.06801138 0.043338094
000130 07 b0 2d be 1d 3b de be 86 34 24 be 05 77 e4 3d
       -0.1696168 -0.43404475 -0.16035661 0.11155514
000140 6a c4 8b bb 6b 20 03 3f 48 dd 08 bf 8a 17 88 bc
       -0.0042653577 0.5122134 -0.5346265 -0.016612787
000150 cc a2 a2 3e 65 30 d4 3e 20 30 20 3e 0e 80 b3 3e
       0.3176483 0.41443172 0.15643358 0.35058635
000160 1a dc 06 3f 8c d0 e5 be 57 25 63 bd fc ee 03 3f
       0.526796 -0.4488567 -0.055455532 0.51536536
000170 69 4f a5 3d 4b fc 19 be df 77 1e be 63 95 dd bd
       0.08071787 -0.15037648 -0.15475415 -0.10819509
000180 50 9b a9 be 7a 99 b5 be c4 a3 ba 3e 99 a3 4a be
       -0.33126307 -0.35468656 0.36453068 -0.1978897
000190 28 b3 26 bd df eb ab bc 52 d7 b4 3d 70 71 57 bc
       -0.0406982 -0.020986496 0.088301316 -0.013149604
0001a0 12 f6 76 3e a1 26 13 be f8 38 c4 3d 44 57 46 3e
       0.24117306 -0.14370205 0.095811784 0.19369227
0001b0 b4 7d cc 3e f2 72 29 3e 01 c8 19 ba 38 79 22 be
       0.39939654 0.16547754 -0.000586629 -0.15866554
0001c0 f1 57 30 3f 6e 47 06 3e 27 1f 88 3e 4d 91 d1 be
       0.6888419 0.13113186 0.26586267 -0.40931168
0001d0 09 20 27 3f ce a3 2c 3d 49 57 4e be 3c 9c 36 3f
       0.65283257 0.042148404 -0.20150484 0.71332145
0001e0 ae 46 16 bf 80 79 d8 3e 50 18 38 3e 2b 36 03 bf
       -0.587016 0.42280197 0.17978024 -0.5125453
0001f0 d6 82 e9 3e b9 60 0e be 9b ce 15 be ad 1d a2 be
       0.45607632 -0.13904084 -0.14629595 -0.31663266

convs.0.att_dst f4 [1, 8, 16]
000000 60 aa 63 bd d8 a2 f6 3d 11 cf 82 3d e8 51 e6 3d
       -0.055582404 0.12042779 0.06387151 0.11246091
000010 d0 66 cf bd f7 35 da bd 07 22 d7 bd 9d 9a fc bc
       -0.10127032 -0.10654824 -0.10504537 -0.030835444
000020 ed 65 9e bb a7 5a 0e bd cf 44 6c 3c 8b fd cd bd
       -0.004833928 -0.03475442 0.014420702 -0.10058125
000030 8a f0 5e bc 3b db 9d 3d 16 89 6d bd 0a 0b b6 3d
       -0.013607154 0.077078305 -0.057992063 0.08888824
000040 e5 1e a4 3d c0 21 8a bc 02 cb e5 3c 55 9f a8 bd
       0.08013705 -0.016861796 0.028050903 -0.08233515
000050 67 eb 1e bb 46 19 e4 bc 02 92 54 3c 58 ca 13 bd
       -0.0024249197 -0.027844083 0.012974264 -0.036081642
000060 f9 04 fc 39 45 bf 82 bc 38 97 c2 3c c8 19 6a 3d
       0.0004806889 -0.015960345 0.023753747 0.057153493
000070 1a c1 25 bd f1 d2 c2 3d df e6 3f bd bc de d4 3d
       -0.04046736 0.0951289 -0.046851035 0.10394046
000080 30 00 77 3d ab 99 15 3d 22 ff 9d 3c 24 83 05 3b
       0.060302913 0.036523502 0.019286696 0.0020372355
000090 b6 f4 25 3d a5 ec 08 bd 75 7b 2f bd f2 02 8a bd
       0.040516578 -0.033428807 -0.042842347 -0.06738843
0000a0 f8 50 45 3d 6a f0 15 bd 1e 7c 8a 3c ab cb d6 3c
       0.04817292 -0.03660623 0.016904887 0.026220163
0000b0 7e ae 10 3b 53 28 4d 3d f0 17 81 bd d6 91 c7 3a
       0.0022076662 0.050087284 -0.06303394 0.0015225958
0000c0 53 d0 b1 bc 3f 59 b3 bc 47 6d 93 bd 62 80 48 bd
       -0.021705782 -0.021893142 -0.071985774 -0.04895056
0000d0 69 e2 ab 3c b8 06 64 bd 0f 9e 0a 3d 94 b0 19 bd
       0.020981984 -0.05567047 0.033842143 -0.037521914
0000e0 a1 4d 9d bd 7b 3c a7 bc 1e 15 af 3b 03 f8 9b bd
       -0.07680822 -0.020414582 0.0053430935 -0.07615664
0000f0 ab 95 96 3c d4 68 dc 3b fb 0d 80 3d 4f e4 f9 bc
       0.018381914 0.0067263637 0.062526666 -0.030504374
000100 55 2c 04 bd 07 52 1d 3d af d5 8d 3d 10 c5 4f 3c
       -0.03226884 0.038408305 0.069255225 0.012681261
000110 c5 d9 a1 3d 31 63 70 3a b2 d9 f2 bc e1 41 49 36
       0.07902864 0.0009170054 -0.02964482 2.998968e-06
000120 32 f2 01 3d 59 6b 45 3d 5f ea 2f 3d e3 6a 9d bd
       0.031725116 0.048198078 0.042948123 -0.07686403
000130 4c 06 3d bd 62 b1 03 be a4 36 7f 3b 11 95 8e bd
       -0.046148583 -0.12860635 0.003894248 -0.06962026
000140 6d e2 2b bd 4e eb 9c 3d 58 00 0d be 0e 07 fd bc
       -0.041963983 0.07662068 -0.13769662 -0.030887153
000150 de 4b 90 3d 90 7f 42 3d dc ad e4 3c f1 70 78 bc
       0.070457205 0.047484934 0.027914934 -0.015163646
000160 46 b9 db 3d 2c 93 7a bd 20 f0 21 3b 19 26 e5 3d
       0.107286975 -0.06117551 0.0024709776 0.11188907
000170 f0 be 95 bc cb de 18 bd ef fe 9f bd cf b1 9f bd
       -0.018279523 -0.037321847 -0.078122966 -0.07797586
000180 a0 53 ef bd 63 cd d4 bd 5c df 01 3e ab e3 05 bd
       -0.11685872 -0.10390737 0.12682861 -0.032687824
000190 1c 3e 67 bd d7 48 60 bc ac 36 20 3d 14 50 07 39
       -0.056455716 -0.013689241 0.03911464 0.00012904435
0001a0 a6 53 84 3d 1b 10 cf bd 1f 72 c5 3c ba 51 61 3d
       0.06461267 -0.10110494 0.024102269 0.05500958
0001b0 b3 f6 8f 3d 57 8d 88 3c 68 ea 3a b7 ff 43 72 bd
       0.07029476 0.016668959 -1.1141041e-05 -0.059146877
0001c0 60 10 e2 3d a4 4b 66 3d e3 62 aa 3d 64 01 a8 bb
       0.110382795 0.05622448 0.083196424 -0.005127119
0001d0 ea 2b ac 3d 83 bc 09 ba 22 b9 0e bc db 8a a5 3d
       0.084068134 -0.00052542257 -0.008711131 0.08083125
0001e0 ba d6 92 bd aa 8e 82 3c ae 0e 95 3d 88 40 d0 bd
       -0.07169862 0.015937168 0.072781906 -0.10168558
0001f0 a5 4d b0 3d 55 5f ab bd b6 e7 02 bd 87 b9 d5 bd
       0.086085595 -0.083677925 -0.031959258 -0.10435777

convs.0.bias f4 [128]
000000 58 ab c6 3d 7b b9 9d 3d cc 2b b6 3d f0 d9 8b 3d
       0.0970065 0.07701393 0.08895072 0.06828678
000010 2f 29 6f 3d 53 4c 67 3d b6 04 3c 3d 3e 53 13 3d
       0.058388885 0.056469273 0.04590293 0.035968058
000020 f0 a6 82 3d de 73 6e 3d e2 82 a7 3d fd d4 2c 3d
       0.06379497 0.05821597 0.08179261 0.04219531
000030 01 43 97 3d 9c 3e 3f 3d f0 95 b3 3d 40 e3 31 3d
       0.07385827 0.04669057 0.08768833 0.043429613
000040 8d d8 80 3d 18 2d 78 3d f0 62 4e 3d 35 3f 7a 3d
       0.06291304 0.06058988 0.050387323 0.061095435
000050 e7 79 33 3d 23 2e c5 3d 89 73 75 3d 34 1e 80 3d
       0.043817427 0.096279405 0.059924636 0.06255761
000060 2f 21 c5 3d e2 ff c3 3d e3 e6 cd 3d 1d 0d 5a 3d
       0.0962547 0.0957029 0.10053804 0.053235162
000070 c1 e9 83 3d 3b de 18 3d d4 ec 9a 3d ad 34 1e 3d
       0.064410694 0.03732131 0.07564703 0.038624454
000080 c0 9b 47 3d ba 68 57 3d 7e fa 5e 3d 5f 57 21 3d
       0.04873252 0.05259011 0.054438107 0.039389964
000090 4d 15 57 3d 63 0b 62 3d f8 b6 d0 3d 88 af 92 3d
       0.05251055 0.05518664 0.101911485 0.07162386
0000a0 e2 31 19 3d d7 03 58 3d 73 63 90 3d 40 28 1c 3d
       0.037401088 0.052738037 0.070502184 0.038124323
0000b0 00 57 86 3d 33 b2 6b 3d 56 ce a4 3d 5d eb b6 3d
       0.06559563 0.05754299 0.08047168 0.08931611
0000c0 3c a4 bb 3d d4 10 2c 3d 65 7f 8e 3d b3 0e 70 3d
       0.091621846 0.042008236 0.06957892 0.05860777
0000d0 0d 83 3a 3d 17 ea 5a 3d b5 58 8b 3d 0e 01 b0 3d
       0.045535136 0.0534459 0.06804029 0.08593951
0000e0 1c d7 90 3d 10 1b 8a 3d c5 1e a1 3d ce 63 5e 3d
       0.07072279 0.06743443 0.07867197 0.0542944
0000f0 bf fc 8f 3d 72 4d 6e bc 9b 3a 36 3d e1 4e ab 3d
       0.07030629 -0.014544832 0.044489484 0.08364654
000100 b7 3c 54 3d ff ab 3c 3d 65 1a ac 3d 4e 54 bc 3c
       0.051815715 0.046062466 0.08403472 0.022989418
000110 6b 4e 97 3d b7 48 75 3d f3 c0 4e 3d 49 c3 b3 bc
       0.07388004 0.0598838 0.05047698 -0.021943705
000120 16 6e 57 3d 37 9b 4d 3d f1 f9 77 3d 25 4a 9e 3d
       0.05259522 0.050196853 0.060541097 0.07728986
000130 bc 38 a3 3d 17 54 8c 3d e9 23 8f 3d 23 75 ac 3d
       0.079698056 0.06851976 0.06989271 0.084207796
000140 c1 5f be 3d 71 38 18 3d 45 56 c3 3d a4 b2 88 3d
       0.09295607 0.0371632 0.09537939 0.06674698
000150 d8 05 8e 3d dc 3c 99 3d bb 25 31 3d 71 a0 90 3d
       0.06934708 0.07482311 0.043248873 0.07061852
000160 e1 62 8e 3d 18 35 d4 3d 7b 44 49 3d 97 86 86 3d
       0.069524534 0.10361689 0.049137574 0.0656864
000170 a0 96 65 3d 0e 22 60 3d 85 db 87 3d bb 32 7f 3d
       0.05605185 0.054719977 0.06633667 0.06230424
000180 bc 83 8f 3d 18 a6 97 3d 14 aa 70 3d 95 7b 66 3d
       0.07007548 0.07404727 0.05875595 0.0562702
000190 f3 96 8d 3d 7f d3 6e 3d 48 6e 46 3d 37 ef 44 bb
       0.06913557 0.058307167 0.048445016 -0.003004981
0001a0 da e6 24 3d a4 04 80 3d 23 70 a3 3d 54 8b 16 3d
       0.04025922 0.06250885 0.07980373 0.036753967
0001b0 e6 9e 7b 3d dc 5c 77 3d eb b8 9a bc d3 dd 89 3d
       0.061430834 0.060391292 -0.018887004 0.06731763
0001c0 8e 22 35 3d 6e 48 74 3d 7a 1e 70 3d 0d 3e 32 3d
       0.044222407 0.059639387 0.058622815 0.043516207
0001d0 e2 8b 71 3d 59 76 a4 3d 31 95 2b 3d 8f 91 2b 3d
       0.058971293 0.080303855 0.041890327 0.041886862
0001e0 9b 4a b1 3d 12 10 53 3d 4f 78 6a 3d 56 15 90 3d
       0.08656808 0.051528998 0.05724364 0.070353195
0001f0 b8 44 26 3d 0f 49 88 3d e3 4a 76 3d 58 bf b6 3d
       0.04059288 0.0665456 0.06013001 0.08923215

convs.0.lin_src.weight f4 [128, 1433]
000000 1e af 73 bc 5d 3c 39 3c 51 55 94 bd c2 54 92 bd
       -0.014873294 0.011305896 -0.07242835 -0.071450725
000010 cf 95 55 be b8 e4 1a 3d d5 aa 9a bd d5 d8 ed bc
       -0.20857929 0.03781578 -0.07552115 -0.029034058
000020 97 2f 8d bd 7b 3c 23 bc da 72 99 ba bf 55 01 3c
       -0.06893843 -0.00996315 -0.0011707202 0.007893979
000030 b3 fa d3 bd 0d 2e 70 bb 15 8b 05 bd 86 de 72 3d
       -0.103505515 -0.0036648542 -0.032603342 0.059294246
000040 bd 92 9c 3d db 44 8a ba 2b 25 38 3c 10 fd e7 3e
       0.076451756 -0.0010549085 0.01123933 0.4531026
000050 d5 9e a6 b4 2f 89 0c bd 19 cb 7d 39 78 e7 4a 3d
       -3.1035475e-07 -0.034310516 0.0002420362 0.049537152
000060 cb a8 a8 3b 95 5b d5 3b 2a 33 b9 bd 05 98 aa 3d
       0.005147075 0.0065111616 -0.09042962 0.08329777
000070 c2 5f 9e bd 50 7d 37 bd df bc 67 3d bc 3e 8e bc
       -0.07733108 -0.04479724 0.056576606 -0.017363898
000080 e2 77 26 3c 50 6b 7f 39 b9 13 1a 3d dc ca d1 bc
       0.010160418 0.00024358672 0.037616465 -0.025609426
000090 fa b9 03 3d 85 71 18 3a ae 17 02 be 1a 2e 66 3d
       0.032159783 0.00058152556 -0.12704346 0.05619631
0000a0 0b cb 28 be 38 8d 46 3d 70 39 29 3c 8c 38 ba 3c
       -0.16483705 0.04847452 0.010328636 0.022732042
0000b0 72 19 dc 3c 66 7c 82 3d 0c 7f 1c bc 7f 9c 84 3d
       0.026867602 0.06371383 -0.009551775 0.06475162
0000c0 a4 53 8a bb eb de fa ba 0f e8 26 3d b8 d0 45 3e
       -0.0042213965 -0.0019139921 0.040748652 0.19317901
0000d0 6c 2a 09 be 68 e5 94 bb c6 80 c0 3d 65 5e 60 3c
       -0.13395089 -0.004543949 0.093995616 0.01369438
0000e0 df 3c b3 bd 1e be 8a 3c 4f 79 1f 3e ac f4 e0 3b
       -0.087518446 0.016936358 0.1557362 0.0068651047
0000f0 5a 37 b9 b4 a4 6c e1 3d 35 b2 a9 bc b3 42 24 be
       -3.449921e-07 0.1100705 -0.020714859 -0.16041069
000100 07 ab 4c bd 9f 39 69 bd 37 b2 2b 3b 02 6c e8 bb
       -0.049967792 -0.056939717 0.0026198754 -0.0070929537
000110 56 d8 ed bb 44 f1 02 3c eb 67 c1 3c 55 9d 77 bc
       -0.0072584553 0.0079920925 0.023609122 -0.0151131945
000120 6c ea 5b 3c 53 e9 05 3d 61 c4 82 3d e0 45 9b 3d
       0.01342259 0.03269322 0.063851126 0.07581687
000130 99 b6 15 3e 9a dd 06 3e ec 1c 3a bd 02 d3 e5 ba
       0.14620437 0.13170472 -0.04543774 -0.0017534199
000140 0f 35 a2 3b c8 46 99 bc ce 5d 97 bd 15 99 da bb
       0.0049501727 -0.018710509 -0.07390939 -0.006671081
000150 6a e5 ff bc 21 5a d4 3d 9c 3e b6 3d b2 25 28 ba
       -0.031237323 0.10368753 0.088986605 -0.00064143084
000160 1b b8 3f 3e e4 ed b2 bc 60 5e 52 bc d1 59 99 3c
       0.18722574 -0.02184195 -0.012839884 0.018719586
000170 75 59 fc bc 15 7b df bd b1 c3 95 3d 9f 16 6e 3d
       -0.030804375 -0.10912148 0.07312716 0.058127042
000180 16 33 85 3b e6 85 96 bc 6d fc 80 bd ef 03 29 be
       0.004064928 -0.018374395 -0.062981464 -0.16505407
000190 fd ee 35 3c b1 d8 e7 3b b0 a2 98 3d f2 1f 02 3d
       0.0111043425 0.007075392 0.07452905 0.031768747
0001a0 41 9a b8 3d 4d d8 2d bc b6 64 5d b9 77 e0 53 bc
       0.090137966 -0.010610652 -0.0002111372 -0.012931935
0001b0 bd ab e6 3d 68 36 de 3c d7 04 50 bc 9f 6b 0b bc
       0.11263225 0.027125552 -0.012696466 -0.008509546
0001c0 cb 11 38 3d fe 3d c7 b8 6e 55 5d 3d f1 b0 d5 bb
       0.044938844 -9.5006064e-05 0.05403655 -0.006521337
0001d0 a5 bc 83 3d b3 f7 58 3c 9f 65 38 bd 53 34 f6 bc
       0.064324655 0.01324265 -0.04501879 -0.030054247
0001e0 dc b0 34 3d 3a b1 25 3a f8 d0 95 3c fe 59 3a bc
       0.04411398 0.00063206593 0.01828812 -0.011373995
0001f0 0e 9a 1d 3d 17 f4 e0 3d 1e cb af 3d 59 cb bc 3c
       0.038476996 0.109840564 0.085836634 0.023046182
000200 9a ea 75 3e 62 69 9a 3c be 55 e4 3c aa 85 e7 3d
       0.24015275 0.018849079 0.027872916 0.11304791
000210 38 0d 86 bd 09 34 9b 3c 67 51 99 bc 76 97 66 3e
       -0.0654549 0.01894571 -0.018715573 0.22518715
000220 2d ef 52 3d 90 d3 a2 3c 72 f5 a2 3c 63 76 2c 3d
       0.051497627 0.019876271 0.019892428 0.04210509
000230 cc 6c 28 be a1 dc 2d 3d e7 d7 41 bc 34 b7 f0 3c
       -0.16447753 0.042446736 -0.01183126 0.029384233
000240 f6 55 d4 b9 8c 93 a4 31 43 72 c5 bd a5 67 93 3b
       -0.00040499837 4.7898023e-09 -0.09640934 0.0044984394
000250 4d fe f2 3b 46 61 03 bd 2a fc e1 3b d6 12 17 bb
       0.007415569 -0.03207519 0.0068965154 -0.0023051999
000260 58 35 7f bc 7a ca 4f 3d 89 ae 9d bc 3d a2 a1 3d
       -0.015576683 0.050730206 -0.019248264 0.078922726
000270 55 c1 a3 3d 75 c2 cf 3d 0c ca 2e bd 5c f8 33 bd
       0.079958595 0.101445116 -0.042673156 -0.043938026
000280 f4 c5 bc 3d b2 65 6d bc 76 b5 c7 3d 59 75 f6 bc
       0.09217444 -0.014489578 0.09751408 -0.030085253
000290 37 43 b6 bc 34 0c 6c bc e0 96 57 3b 2f 2c 9b bc
       -0.022248847 -0.014407206 0.0032896325 -0.018941967
0002a0 7b e0 71 be da bb 13 3d a4 ca 41 bc cc 02 bf 3b
       -0.23620789 0.03606782 -0.011828098 0.005829191
0002b0 35 c7 dd 3c 7c 4d 7d bc ab 5a 54 3c 69 41 c6 bc
       0.027072528 -0.015460368 0.01296107 -0.024201112
0002c0 fb 68 30 3e 70 be eb 3c 31 a2 d6 3a 2d 53 dd ba
       0.17227547 0.028777331 0.0016375241 -0.001688575
0002d0 87 09 98 3c 1c 7c 0f 3c 9c 7d 03 3c 5d 16 b9 3c
       0.01855923 0.008757617 0.008025553 0.022593671
0002e0 54 13 b4 3b e7 b4 26 ba 32 e8 9d bd 50 79 87 be
       0.005495468 -0.0006359354 -0.07710303 -0.26459742
0002f0 bc 67 e6 3d a6 6a 71 bb 69 ce 60 bc 9d 1f 48 bd
       0.112502545 -0.003683725 -0.013721087 -0.048858274
000300 80 d7 21 bd 1c 68 25 bc 0b d0 45 3d 29 20 6e bd
       -0.039512157 -0.010095622 0.04829411 -0.05813614
000310 aa c5 06 be 10 9e 57 bc 2b a6 79 ba bf 14 35 bc
       -0.1316134 -0.013160244 -0.0009523357 -0.01105231
000320 1c 05 c5 3b de 03 0e 3c 65 ae ee 3c 38 20 3d bd
       0.006012572 0.008667914 0.029135892 -0.046173304
000330 c2 16 7d 3b 67 8b 18 bd 98 16 bd 3c 71 07 98 3d
       0.00386183 -0.03724232 0.023082063 0.07423294
000340 47 e4 f5 bc bc 8a 92 bb b5 5b bc bb 38 38 1c be
       -0.030016078 -0.004472105 -0.005748237 -0.15255821
000350 93 1e 71 3c 0e 01 02 3d 8b 26 ae bc 2a 0d 00 bd
       0.014716762 0.031739287 -0.021258613 -0.031262554
000360 88 a6 da 3b fb 51 ac 3d fe b7 19 3d 4f 27 80 bb
       0.006672684 0.08414074 0.037528984 -0.003910936
000370 1d 8c 3e bc a6 67 37 bd 0b b5 bc bc df 58 40 bb
       -0.011630085 -0.04477658 -0.023035547 -0.0029349846
000380 67 46 27 bd 9d 52 20 3d d5 c1 1d 3c 88 78 d7 3c
       -0.040838625 0.039141286 0.009628733 0.026302591
000390 aa 57 1d bd 60 8c 15 bc 9c 3a a8 3c 96 fe 31 3d
       -0.03841368 -0.009127706 0.02053576 0.043455683
0003a0 00 1f b2 3d da 8a 06 be 75 ed 76 be 61 6c 55 bc
       0.08697319 -0.13138905 -0.2411402 -0.013026328
0003b0 ca ca 45 bc 5e 1c dc bd 3c 3c 43 3e 06 97 37 3d
       -0.012072274 -0.10747598 0.19065946 0.04482176
0003c0 f7 2d 00 3c 13 52 b8 bc db d9 94 bb 6c aa 05 3c
       0.007823459 -0.022500074 -0.004542572 0.0081583075
0003d0 71 b9 bb bc 1b 8c 24 bd 88 df ae ba 74 cb 89 bd
       -0.022915574 -0.040172677 -0.0013341764 -0.06728259
0003e0 14 a3 de 3b 1e 94 89 3d 1a 96 f8 bc b6 6f 09 3d
       0.006794343 0.06717704 -0.030345012 0.0335538
0003f0 51 3f 2a bc 85 6c f7 bb 2b 5d 82 bd 1d 19 af bc
       -0.010391072 -0.0075507783 -0.06365427 -0.02137428

convs.0.lin_dst.weight f4 [128, 1433]
000000 1e af 73 bc 5d 3c 39 3c 51 55 94 bd c2 54 92 bd
       -0.014873294 0.011305896 -0.07242835 -0.071450725
000010 cf 95 55 be b8 e4 1a 3d d5 aa 9a bd d5 d8 ed bc
       -0.20857929 0.03781578 -0.07552115 -0.029034058
000020 97 2f 8d bd 7b 3c 23 bc da 72 99 ba bf 55 01 3c
       -0.06893843 -0.00996315 -0.0011707202 0.007893979
000030 b3 fa d3 bd 0d 2e 70 bb 15 8b 05 bd 86 de 72 3d
       -0.103505515 -0.0036648542 -0.032603342 0.059294246
000040 bd 92 9c 3d db 44 8a ba 2b 25 38 3c 10 fd e7 3e
       0.076451756 -0.0010549085 0.01123933 0.4531026
000050 d5 9e a6 b4 2f 89 0c bd 19 cb 7d 39 78 e7 4a 3d
       -3.1035475e-07 -0.034310516 0.0002420362 0.049537152
000060 cb a8 a8 3b 95 5b d5 3b 2a 33 b9 bd 05 98 aa 3d
       0.005147075 0.0065111616 -0.09042962 0.08329777
000070 c2 5f 9e bd 50 7d 37 bd df bc 67 3d bc 3e 8e bc
       -0.07733108 -0.04479724 0.056576606 -0.017363898
000080 e2 77 26 3c 50 6b 7f 39 b9 13 1a 3d dc ca d1 bc
       0.010160418 0.00024358672 0.037616465 -0.025609426
000090 fa b9 03 3d 85 71 18 3a ae 17 02 be 1a 2e 66 3d
       0.032159783 0.00058152556 -0.12704346 0.05619631
0000a0 0b cb 28 be 38 8d 46 3d 70 39 29 3c 8c 38 ba 3c
       -0.16483705 0.04847452 0.010328636 0.022732042
0000b0 72 19 dc 3c 66 7c 82 3d 0c 7f 1c bc 7f 9c 84 3d
       0.026867602 0.06371383 -0.009551775 0.06475162
0000c0 a4 53 8a bb eb de fa ba 0f e8 26 3d b8 d0 45 3e
       -0.0042213965 -0.0019139921 0.040748652 0.19317901
0000d0 6c 2a 09 be 68 e5 94 bb c6 80 c0 3d 65 5e 60 3c
       -0.13395089 -0.004543949 0.093995616 0.01369438
0000e0 df 3c b3 bd 1e be 8a 3c 4f 79 1f 3e ac f4 e0 3b
       -0.087518446 0.016936358 0.1557362 0.0068651047
0000f0 5a 37 b9 b4 a4 6c e1 3d 35 b2 a9 bc b3 42 24 be
       -3.449921e-07 0.1100705 -0.020714859 -0.16041069
000100 07 ab 4c bd 9f 39 69 bd 37 b2 2b 3b 02 6c e8 bb
       -0.049967792 -0.056939717 0.0026198754 -0.0070929537
000110 56 d8 ed bb 44 f1 02 3c eb 67 c1 3c 55 9d 77 bc
       -0.0072584553 0.0079920925 0.023609122 -0.0151131945
000120 6c ea 5b 3c 53 e9 05 3d 61 c4 82 3d e0 45 9b 3d
       0.01342259 0.03269322 0.063851126 0.07581687
000130 99 b6 15 3e 9a dd 06 3e ec 1c 3a bd 02 d3 e5 ba
       0.14620437 0.13170472 -0.04543774 -0.0017534199
000140 0f 35 a2 3b c8 46 99 bc ce 5d 97 bd 15 99 da bb
       0.0049501727 -0.018710509 -0.07390939 -0.006671081
000150 6a e5 ff bc 21 5a d4 3d 9c 3e b6 3d b2 25 28 ba
       -0.031237323 0.10368753 0.088986605 -0.00064143084
000160 1b b8 3f 3e e4 ed b2 bc 60 5e 52 bc d1 59 99 3c
       0.18722574 -0.02184195 -0.012839884 0.018719586
000170 75 59 fc bc 15 7b df bd b1 c3 95 3d 9f 16 6e 3d
       -0.030804375 -0.10912148 0.07312716 0.058127042
000180 16 33 85 3b e6 85 96 bc 6d fc 80 bd ef 03 29 be
       0.004064928 -0.018374395 -0.062981464 -0.16505407
000190 fd ee 35 3c b1 d8 e7 3b b0 a2 98 3d f2 1f 02 3d
       0.0111043425 0.007075392 0.07452905 0.031768747
0001a0 41 9a b8 3d 4d d8 2d bc b6 64 5d b9 77 e0 53 bc
       0.090137966 -0.010610652 -0.0002111372 -0.012931935
0001b0 bd ab e6 3d 68 36 de 3c d7 04 50 bc 9f 6b 0b bc
       0.11263225 0.027125552 -0.012696466 -0.008509546
0001c0 cb 11 38 3d fe 3d c7 b8 6e 55 5d 3d f1 b0 d5 bb
       0.044938844 -9.5006064e-05 0.05403655 -0.006521337
0001d0 a5 bc 83 3d b3 f7 58 3c 9f 65 38 bd 53 34 f6 bc
       0.064324655 0.01324265 -0.04501879 -0.030054247
0001e0 dc b0 34 3d 3a b1 25 3a f8 d0 95 3c fe 59 3a bc
       0.04411398 0.00063206593 0.01828812 -0.011373995
0001f0 0e 9a 1d 3d 17 f4 e0 3d 1e cb af 3d 59 cb bc 3c
       0.038476996 0.109840564 0.085836634 0.023046182
000200 9a ea 75 3e 62 69 9a 3c be 55 e4 3c aa 85 e7 3d
       0.24015275 0.018849079 0.027872916 0.11304791
000210 38 0d 86 bd 09 34 9b 3c 67 51 99 bc 76 97 66 3e
       -0.0654549 0.01894571 -0.018715573 0.22518715
000220 2d ef 52 3d 90 d3 a2 3c 72 f5 a2 3c 63 76 2c 3d
       0.051497627 0.019876271 0.019892428 0.04210509
000230 cc 6c 28 be a1 dc 2d 3d e7 d7 41 bc 34 b7 f0 3c
       -0.16447753 0.042446736 -0.01183126 0.029384233
000240 f6 55 d4 b9 8c 93 a4 31 43 72 c5 bd a5 67 93 3b
       -0.00040499837 4.7898023e-09 -0.09640934 0.0044984394
000250 4d fe f2 3b 46 61 03 bd 2a fc e1 3b d6 12 17 bb
       0.007415569 -0.03207519 0.0068965154 -0.0023051999
000260 58 35 7f bc 7a ca 4f 3d 89 ae 9d bc 3d a2 a1 3d
       -0.015576683 0.050730206 -0.019248264 0.078922726
000270 55 c1 a3 3d 75 c2 cf 3d 0c ca 2e bd 5c f8 33 bd
       0.079958595 0.101445116 -0.042673156 -0.043938026
000280 f4 c5 bc 3d b2 65 6d bc 76 b5 c7 3d 59 75 f6 bc
       0.09217444 -0.014489578 0.09751408 -0.030085253
000290 37 43 b6 bc 34 0c 6c bc e0 96 57 3b 2f 2c 9b bc
       -0.022248847 -0.014407206 0.0032896325 -0.018941967
0002a0 7b e0 71 be da bb 13 3d a4 ca 41 bc cc 02 bf 3b
       -0.23620789 0.03606782 -0.011828098 0.005829191
0002b0 35 c7 dd 3c 7c 4d 7d bc ab 5a 54 3c 69 41 c6 bc
       0.027072528 -0.015460368 0.01296107 -0.024201112
0002c0 fb 68 30 3e 70 be eb 3c 31 a2 d6 3a 2d 53 dd ba
       0.17227547 0.028777331 0.0016375241 -0.001688575
0002d0 87 09 98 3c 1c 7c 0f 3c 9c 7d 03 3c 5d 16 b9 3c
       0.01855923 0.008757617 0.008025553 0.022593671
0002e0 54 13 b4 3b e7 b4 26 ba 32 e8 9d bd 50 79 87 be
       0.005495468 -0.0006359354 -0.07710303 -0.26459742
0002f0 bc 67 e6 3d a6 6a 71 bb 69 ce 60 bc 9d 1f 48 bd
       0.112502545 -0.003683725 -0.013721087 -0.048858274
000300 80 d7 21 bd 1c 68 25 bc 0b d0 45 3d 29 20 6e bd
       -0.039512157 -0.010095622 0.04829411 -0.05813614
000310 aa c5 06 be 10 9e 57 bc 2b a6 79 ba bf 14 35 bc
       -0.1316134 -0.013160244 -0.0009523357 -0.01105231
000320 1c 05 c5 3b de 03 0e 3c 65 ae ee 3c 38 20 3d bd
       0.006012572 0.008667914 0.029135892 -0.046173304
000330 c2 16 7d 3b 67 8b 18 bd 98 16 bd 3c 71 07 98 3d
       0.00386183 -0.03724232 0.023082063 0.07423294
000340 47 e4 f5 bc bc 8a 92 bb b5 5b bc bb 38 38 1c be
       -0.030016078 -0.004472105 -0.005748237 -0.15255821
000350 93 1e 71 3c 0e 01 02 3d 8b 26 ae bc 2a 0d 00 bd
       0.014716762 0.031739287 -0.021258613 -0.031262554
000360 88 a6 da 3b fb 51 ac 3d fe b7 19 3d 4f 27 80 bb
       0.006672684 0.08414074 0.037528984 -0.003910936
000370 1d 8c 3e bc a6 67 37 bd 0b b5 bc bc df 58 40 bb
       -0.011630085 -0.04477658 -0.023035547 -0.0029349846
000380 67 46 27 bd 9d 52 20 3d d5 c1 1d 3c 88 78 d7 3c
       -0.040838625 0.039141286 0.009628733 0.026302591
000390 aa 57 1d bd 60 8c 15 bc 9c 3a a8 3c 96 fe 31 3d
       -0.03841368 -0.009127706 0.02053576 0.043455683
0003a0 00 1f b2 3d da 8a 06 be 75 ed 76 be 61 6c 55 bc
       0.08697319 -0.13138905 -0.2411402 -0.013026328
0003b0 ca ca 45 bc 5e 1c dc bd 3c 3c 43 3e 06 97 37 3d
       -0.012072274 -0.10747598 0.19065946 0.04482176
0003c0 f7 2d 00 3c 13 52 b8 bc db d9 94 bb 6c aa 05 3c
       0.007823459 -0.022500074 -0.004542572 0.0081583075
0003d0 71 b9 bb bc 1b 8c 24 bd 88 df ae ba 74 cb 89 bd
       -0.022915574 -0.040172677 -0.0013341764 -0.06728259
0003e0 14 a3 de 3b 1e 94 89 3d 1a 96 f8 bc b6 6f 09 3d
       0.006794343 0.06717704 -0.030345012 0.0335538
0003f0 51 3f 2a bc 85 6c f7 bb 2b 5d 82 bd 1d 19 af bc
       -0.010391072 -0.0075507783 -0.06365427 -0.02137428

convs.1.att_src f4 [1, 1, 7]
000000 f6 04 eb bd ea ac 2a be b8 14 4b be 0e 7b 84 3e
       -0.114755556 -0.16667524 -0.19832122 0.25875133
000010 99 55 20 3d d9 e4 75 3e 43 2e 93 3d
       0.039144132 0.2401308 0.07186558

convs.1.att_dst f4 [1, 1, 7]
000000 b6 10 a1 be 19 f3 54 3d 58 f1 a1 be 76 c8 54 3f
       -0.31458062 0.05198965 -0.31629443 0.8311838
000010 f0 b8 33 be d3 a4 ab bd 23 2b 25 3f
       -0.17551017 -0.08381047 0.64518946

convs.1.bias f4 [7]
000000 d0 1c af bd 4b 01 1e be e0 2a 12 be 93 b0 bc 3d
       -0.085504174 -0.1543018 -0.14274168 0.09213366
000010 a0 89 cd bd 39 12 04 3d 11 cd 88 3e
       -0.100360155 0.03224394 0.26718953

convs.1.lin_src.weight f4 [7, 128]
000000 58 13 15 bf 42 49 c9 3e 9c e1 fb 3e 25 ea f6 3e
       -0.5823264 0.39313704 0.49195564 0.48225513
000010 23 96 43 bf b0 f7 54 bf 5f 78 13 bf 42 f5 21 3e
       -0.76400965 -0.8319044 -0.57605547 0.15816215
000020 ce ff 16 bf 8c 8b 35 bf 6c d6 cc 3e 0b 5e 3f bf
       -0.58984077 -0.70916057 0.4000734 -0.74752873
000030 5f 0f 05 bf 65 d2 2d 3f 9b 3a 1d 3f 99 3d ce be
       -0.5197658 0.6789916 0.6141755 -0.4028137
000040 70 3a 3e 3f de b6 f6 3e 35 58 ef be de c2 a8 3e
       0.7430792 0.48186392 -0.46746984 0.32961172
000050 46 ee 69 3e 9b bd 52 bf 32 de 30 bf 62 10 2a 3f
       0.228448 -0.82320565 -0.69089043 0.6643125
000060 0c 65 0c 3f 7b 4a d4 3e 5d ae 10 3f d6 71 11 3f
       0.54841685 0.41463074 0.5651606 0.56814325
000070 d8 7d eb 3e 85 28 11 3f b3 51 72 3e f4 45 10 3f
       0.4599445 0.5670245 0.23663978 0.5635674
000080 f9 42 2f 3f 18 d8 21 bf 2d ae 4c 3f a9 de d6 be
       0.6846157 -0.6322036 0.7995327 -0.4196675
000090 aa 34 f8 3e da 0e 42 bf 1d 0b 24 bf c0 f0 0c bf
       0.4847768 -0.7580391 -0.6407946 -0.55054855
0000a0 56 6a 95 be 99 a7 48 bf 42 40 39 bf 51 b2 40 3f
       -0.2918269 -0.78380734 -0.72363675 0.7527209
0000b0 05 7a b4 3e e1 d5 05 3c ca c4 ab 3e 34 40 e2 3e
       0.35249344 0.0081686685 0.33548576 0.44189608
0000c0 3e 4d 4c 3e ea 70 18 3f 23 9b 1e bf 5c f7 83 be
       0.1995134 0.59547293 -0.6195547 -0.25774658
0000d0 57 fc d8 3d c5 20 7d be 51 1b 55 bf d4 fa 2d 3f
       0.10595005 -0.24719532 -0.83244807 0.6796086
0000e0 42 0f 3a bf e6 16 b7 3e 1c 04 e3 3e bb ec 9a 3d
       -0.7267953 0.35759658 0.44339073 0.07564684
0000f0 d2 8f 2b bf 24 3c 0c b3 91 59 c3 3e 70 0c 12 3f
       -0.6701633 -3.2650988e-08 0.3815427 0.5705023
000100 b7 ef 18 3f 8b 98 34 3e cc 85 cb 3b 29 0e d5 3e
       0.59740776 0.17636316 0.006211018 0.41612366
000110 76 01 38 bf 07 fe 3f 3f be 1c db be a6 b6 79 b6
       -0.7187723 0.7499699 -0.42795366 -3.7210207e-06
000120 8d 10 09 3e f0 22 62 bf 18 e4 41 bf c3 2b 4f bf
       0.1338522 -0.8833456 -0.7573867 -0.8092615
000130 e9 e1 0f 3f 82 d8 25 be aa bf 04 bf d4 28 0e 3f
       0.56204087 -0.16195872 -0.51854956 0.5553105
000140 09 0d 16 bf 34 39 f6 be 13 84 aa 3e 8d 25 62 bf
       -0.5861364 -0.48090518 0.3330389 -0.8833855
000150 85 d7 48 bf af 78 3b bf 70 78 12 3f a9 2c 20 bf
       -0.78453857 -0.73231024 0.57215023 -0.62568146
000160 9d da 21 3f 53 89 c7 3e ac 79 fc 3e 2e fd a0 be
       0.632242 0.38971958 0.49311578 -0.3144316
000170 09 99 18 3f 26 44 09 bf 4e 6c 4a bf 78 d8 0f 3f
       0.59608513 -0.5361961 -0.7907151 0.5618968
000180 ff 59 35 bf 0e 11 48 3d 26 18 f1 3e 85 52 29 bf
       -0.7084045 0.04884439 0.47088736 -0.6614154
000190 0e 4e 5d bf ef 47 63 bf 3b 39 f9 3e 75 51 f6 b5
       -0.86447227 -0.88781637 0.48676476 -1.8352135e-06
0001a0 29 ec 3a 3f fb 6c 40 bf 57 6f 02 be e3 02 34 3f
       0.730166 -0.7516629 -0.12737785 0.70316905
0001b0 6b 18 19 3f e6 88 12 3f c6 1a 38 38 02 28 fc be
       0.59802884 0.5724014 4.3893953e-05 -0.49249274
0001c0 dc f2 57 be 2f 40 e7 be af b8 5a bd 26 ea 1b 3f
       -0.21088737 -0.45166156 -0.053398784 0.6090416
0001d0 b1 46 11 3e fb fc 50 bf a6 76 d6 be 5a 0c a0 be
       0.14187123 -0.8163602 -0.41887397 -0.31259423
0001e0 59 0a bd 3e 6b c6 32 bf 08 c2 2c 3f ea 0c 1c bf
       0.36921957 -0.6983401 0.6748357 -0.60957205
0001f0 9c ca 24 bf ed ff 18 3f b7 9c b2 3d db bb 25 bf
       -0.6437166 0.5976551 0.08721297 -0.6473977
000200 82 b8 25 bf 33 22 38 3f 40 28 da 3e 0a 47 45 3f
       -0.6473466 0.71927184 0.42608833 0.7706152
000210 d4 de 7b 3e ff 21 c9 be a6 12 cb be 54 2d 47 3f
       0.24596721 -0.3928375 -0.39662665 0.7780354
000220 4e 9d 01 bf 46 d7 42 3f ad e6 35 bf 18 62 08 bf
       -0.5063065 0.7610973 -0.7105511 -0.5327468
000230 4e 30 0f bf 04 22 35 3f 7b 28 3b bf 32 c7 44 3f
       -0.5593308 0.7075503 -0.73108643 0.7686645
000240 97 19 0d bf 9d 0c 04 3f 8a bf ea be ef 0d 25 bf
       -0.5511717 0.51581746 -0.45849258 -0.64474386
000250 20 2b 55 3f 4e ea 21 bf e4 c8 32 3f 4b 01 16 bf
       0.8326893 -0.63248146 0.69837785 -0.5859572
000260 d7 0c 0e bf be e6 34 bf 0e f2 0f bf 49 a0 18 bf
       -0.5548834 -0.70664585 -0.5622872 -0.59619576
000270 d6 84 3b bf 7c 7e af 3e ed ed 3f bf 06 dc 25 3f
       -0.73249567 0.34276187 -0.7497242 0.64788854
000280 59 bb 43 bf 4e 54 b2 be 74 16 2b bf f9 4a 13 bf
       -0.76457745 -0.34829944 -0.66831136 -0.57536274
000290 94 a4 23 bf 47 be 24 bf 43 4c 36 bf 4d 75 92 bd
       -0.63923 -0.6435284 -0.71210116 -0.071512796
0002a0 a4 d0 3e 3f bb 30 03 3f 42 49 ea 3e 82 2f 2d 3f
       0.7453711 0.5124623 0.45759016 0.67650616
0002b0 2e 1c 25 bf c7 76 79 3e 37 b5 2e bf 31 0d 51 3c
       -0.64496124 0.24361716 -0.6824526 0.012759493
0002c0 65 a7 05 bf 9d 3c 3e 3f ec 23 8b be 96 70 04 bf
       -0.5220855 0.7431124 -0.27175844 -0.5173429
0002d0 62 df 04 3f c6 25 3f 3f 69 77 44 3f fa 79 da be
       0.51903355 0.7466701 0.76744705 -0.42671186
0002e0 51 da 05 bf 83 0a 3b 3f 6c ba 35 3f 4b d2 17 bf
       -0.5228625 0.73062915 0.7098758 -0.59305257
0002f0 84 ea 09 bf 67 a8 84 36 2d 22 30 3f fe a9 6c be
       -0.5387347 3.953511e-06 0.6880215 -0.23111722
000300 40 c4 44 bf 86 02 fa 3e 9b a3 4a 3f 88 38 b3 be
       -0.76861954 0.4883005 0.7915589 -0.35004067
000310 87 b1 5b 3f 14 d9 33 bf a9 16 5e be 10 f9 4a b3
       0.8581776 -0.7025311 -0.21688332 -4.725831e-08
000320 cd af 3d 3f b7 0c 2d 3f c0 60 04 bf b1 14 20 3f
       0.74096376 0.67597526 -0.5171013 0.6253157
000330 f2 93 23 bf 22 0a 2b bf 13 4f 1e bf 63 e5 0a 3f
       -0.6389762 -0.66812336 -0.6183941 0.54256266
000340 70 73 9f 3e 8d 27 a4 be f3 a6 07 3f 6f 39 0a 3f
       0.3114276 -0.32061425 0.5298912 0.53993887
000350 8d 1b 20 bf a1 64 74 3e 7c 1b 14 bf ca 85 5d 3f
       -0.6254204 0.23866512 -0.5785444 0.8653227
000360 d5 5b 0d bf 45 50 0a bf be bb 34 bf a3 db 30 bf
       -0.5521825 -0.5402873 -0.7059897 -0.6908514
000370 89 d9 ec 3e 58 cf 1c 3f bc 29 1f 3f 6c 50 41 3f
       0.46259716 0.6125388 0.62173057 0.7551334
000380 9b 33 6e be 97 f1 3d bf 51 9f 0b 3f 9c 9a 17 3f
       -0.23261873 -0.7419676 0.5453997 0.5922029
000390 51 d7 0e bf 24 8b 55 3f e8 f0 a3 be 46 51 8b b5
       -0.55797297 0.83415437 -0.32019734 -1.0379961e-06
0003a0 02 86 76 3e 57 dc 27 bf 0a d3 6b 3d 6a e5 12 be
       0.24074557 -0.65570587 0.05757431 -0.14345327
0003b0 bd 09 00 bf 8c fe 29 bf 9a 95 ae b3 f5 b3 38 bf
       -0.5001486 -0.6640403 -8.129719e-08 -0.7214959
0003c0 0b 2e 41 3f 53 e4 1b 3e 6c f0 5a bf 72 8a 96 be
       0.7546088 0.15223818 -0.85523105 -0.294025
0003d0 8c e9 3d 3f c7 8f 03 be 76 b2 0d bf a6 7a 0f 3f
       0.7418449 -0.12847815 -0.55350435 0.5604652
0003e0 63 60 33 bf 3c 64 05 3f cc 07 0d bf d6 77 97 bb
       -0.7006895 0.5210607 -0.5509002 -0.00462244
0003f0 fb d3 22 3f f2 30 c4 3e 91 0b 4a bf 6f de 12 bf
       0.63604707 0.38318592 -0.789239 -0.57370657

convs.1.lin_dst.weight f4 [7, 128]
000000 58 13 15 bf 42 49 c9 3e 9c e1 fb 3e 25 ea f6 3e
       -0.5823264 0.39313704 0.49195564 0.48225513
000010 23 96 43 bf b0 f7 54 bf 5f 78 13 bf 42 f5 21 3e
       -0.76400965 -0.8319044 -0.57605547 0.15816215
000020 ce ff 16 bf 8c 8b 35 bf 6c d6 cc 3e 0b 5e 3f bf
       -0.58984077 -0.70916057 0.4000734 -0.74752873
000030 5f 0f 05 bf 65 d2 2d 3f 9b 3a 1d 3f 99 3d ce be
       -0.5197658 0.6789916 0.6141755 -0.4028137
000040 70 3a 3e 3f de b6 f6 3e 35 58 ef be de c2 a8 3e
       0.7430792 0.48186392 -0.46746984 0.32961172
000050 46 ee 69 3e 9b bd 52 bf 32 de 30 bf 62 10 2a 3f
       0.228448 -0.82320565 -0.69089043 0.6643125
000060 0c 65 0c 3f 7b 4a d4 3e 5d ae 10 3f d6 71 11 3f
       0.54841685 0.41463074 0.5651606 0.56814325
000070 d8 7d eb 3e 85 28 11 3f b3 51 72 3e f4 45 10 3f
       0.4599445 0.5670245 0.23663978 0.5635674
000080 f9 42 2f 3f 18 d8 21 bf 2d ae 4c 3f a9 de d6 be
       0.6846157 -0.6322036 0.7995327 -0.4196675
000090 aa 34 f8 3e da 0e 42 bf 1d 0b 24 bf c0 f0 0c bf
       0.4847768 -0.7580391 -0.6407946 -0.55054855
0000a0 56 6a 95 be 99 a7 48 bf 42 40 39 bf 51 b2 40 3f
       -0.2918269 -0.78380734 -0.72363675 0.7527209
0000b0 05 7a b4 3e e1 d5 05 3c ca c4 ab 3e 34 40 e2 3e
       0.35249344 0.0081686685 0.33548576 0.44189608
0000c0 3e 4d 4c 3e ea 70 18 3f 23 9b 1e bf 5c f7 83 be
       0.1995134 0.59547293 -0.6195547 -0.25774658
0000d0 57 fc d8 3d c5 20 7d be 51 1b 55 bf d4 fa 2d 3f
       0.10595005 -0.24719532 -0.83244807 0.6796086
0000e0 42 0f 3a bf e6 16 b7 3e 1c 04 e3 3e bb ec 9a 3d
       -0.7267953 0.35759658 0.44339073 0.07564684
0000f0 d2 8f 2b bf 24 3c 0c b3 91 59 c3 3e 70 0c 12 3f
       -0.6701633 -3.2650988e-08 0.3815427 0.5705023
000100 b7 ef 18 3f 8b 98 34 3e cc 85 cb 3b 29 0e d5 3e
       0.59740776 0.17636316 0.006211018 0.41612366
000110 76 01 38 bf 07 fe 3f 3f be 1c db be a6 b6 79 b6
       -0.7187723 0.7499699 -0.42795366 -3.7210207e-06
000120 8d 10 09 3e f0 22 62 bf 18 e4 41 bf c3 2b 4f bf
       0.1338522 -0.8833456 -0.7573867 -0.8092615
000130 e9 e1 0f 3f 82 d8 25 be aa bf 04 bf d4 28 0e 3f
       0.56204087 -0.16195872 -0.51854956 0.5553105
000140 09 0d 16 bf 34 39 f6 be 13 84 aa 3e 8d 25 62 bf
       -0.5861364 -0.48090518 0.3330389 -0.8833855
000150 85 d7 48 bf af 78 3b bf 70 78 12 3f a9 2c 20 bf
       -0.78453857 -0.73231024 0.57215023 -0.62568146
000160 9d da 21 3f 53 89 c7 3e ac 79 fc 3e 2e fd a0 be
       0.632242 0.38971958 0.49311578 -0.3144316
000170 09 99 18 3f 26 44 09 bf 4e 6c 4a bf 78 d8 0f 3f
       0.59608513 -0.5361961 -0.7907151 0.5618968
000180 ff 59 35 bf 0e 11 48 3d 26 18 f1 3e 85 52 29 bf
       -0.7084045 0.04884439 0.47088736 -0.6614154
000190 0e 4e 5d bf ef 47 63 bf 3b 39 f9 3e 75 51 f6 b5
       -0.86447227 -0.88781637 0.48676476 -1.8352135e-06
0001a0 29 ec 3a 3f fb 6c 40 bf 57 6f 02 be e3 02 34 3f
       0.730166 -0.7516629 -0.12737785 0.70316905
0001b0 6b 18 19 3f e6 88 12 3f c6 1a 38 38 02 28 fc be
       0.59802884 0.5724014 4.3893953e-05 -0.49249274
0001c0 dc f2 57 be 2f 40 e7 be af b8 5a bd 26 ea 1b 3f
       -0.21088737 -0.45166156 -0.053398784 0.6090416
0001d0 b1 46 11 3e fb fc 50 bf a6 76 d6 be 5a 0c a0 be
       0.14187123 -0.8163602 -0.41887397 -0.31259423
0001e0 59 0a bd 3e 6b c6 32 bf 08 c2 2c 3f ea 0c 1c bf
       0.36921957 -0.6983401 0.6748357 -0.60957205
0001f0 9c ca 24 bf ed ff 18 3f b7 9c b2 3d db bb 25 bf
       -0.6437166 0.5976551 0.08721297 -0.6473977
000200 82 b8 25 bf 33 22 38 3f 40 28 da 3e 0a 47 45 3f
       -0.6473466 0.71927184 0.42608833 0.7706152
000210 d4 de 7b 3e ff 21 c9 be a6 12 cb be 54 2d 47 3f
       0.24596721 -0.3928375 -0.39662665 0.7780354
000220 4e 9d 01 bf 46 d7 42 3f ad e6 35 bf 18 62 08 bf
       -0.5063065 0.7610973 -0.7105511 -0.5327468
000230 4e 30 0f bf 04 22 35 3f 7b 28 3b bf 32 c7 44 3f
       -0.5593308 0.7075503 -0.73108643 0.7686645
000240 97 19 0d bf 9d 0c 04 3f 8a bf ea be ef 0d 25 bf
       -0.5511717 0.51581746 -0.45849258 -0.64474386
000250 20 2b 55 3f 4e ea 21 bf e4 c8 32 3f 4b 01 16 bf
       0.8326893 -0.63248146 0.69837785 -0.5859572
000260 d7 0c 0e bf be e6 34 bf 0e f2 0f bf 49 a0 18 bf
       -0.5548834 -0.70664585 -0.5622872 -0.59619576
000270 d6 84 3b bf 7c 7e af 3e ed ed 3f bf 06 dc 25 3f
       -0.73249567 0.34276187 -0.7497242 0.64788854
000280 59 bb 43 bf 4e 54 b2 be 74 16 2b bf f9 4a 13 bf
       -0.76457745 -0.34829944 -0.66831136 -0.57536274
000290 94 a4 23 bf 47 be 24 bf 43 4c 36 bf 4d 75 92 bd
       -0.63923 -0.6435284 -0.71210116 -0.071512796
0002a0 a4 d0 3e 3f bb 30 03 3f 42 49 ea 3e 82 2f 2d 3f
       0.7453711 0.5124623 0.45759016 0.67650616
0002b0 2e 1c 25 bf c7 76 79 3e 37 b5 2e bf 31 0d 51 3c
       -0.64496124 0.24361716 -0.6824526 0.012759493
0002c0 65 a7 05 bf 9d 3c 3e 3f ec 23 8b be 96 70 04 bf
       -0.5220855 0.7431124 -0.27175844 -0.5173429
0002d0 62 df 04 3f c6 25 3f 3f 69 77 44 3f fa 79 da be
       0.51903355 0.7466701 0.76744705 -0.42671186
0002e0 51 da 05 bf 83 0a 3b 3f 6c ba 35 3f 4b d2 17 bf
       -0.5228625 0.73062915 0.7098758 -0.59305257
0002f0 84 ea 09 bf 67 a8 84 36 2d 22 30 3f fe a9 6c be
       -0.5387347 3.953511e-06 0.6880215 -0.23111722
000300 40 c4 44 bf 86 02 fa 3e 9b a3 4a 3f 88 38 b3 be
       -0.76861954 0.4883005 0.7915589 -0.35004067
000310 87 b1 5b 3f 14 d9 33 bf a9 16 5e be 10 f9 4a b3
       0.8581776 -0.7025311 -0.21688332 -4.725831e-08
000320 cd af 3d 3f b7 0c 2d 3f c0 60 04 bf b1 14 20 3f
       0.74096376 0.67597526 -0.5171013 0.6253157
000330 f2 93 23 bf 22 0a 2b bf 13 4f 1e bf 63 e5 0a 3f
       -0.6389762 -0.66812336 -0.6183941 0.54256266
000340 70 73 9f 3e 8d 27 a4 be f3 a6 07 3f 6f 39 0a 3f
       0.3114276 -0.32061425 0.5298912 0.53993887
000350 8d 1b 20 bf a1 64 74 3e 7c 1b 14 bf ca 85 5d 3f
       -0.6254204 0.23866512 -0.5785444 0.8653227
000360 d5 5b 0d bf 45 50 0a bf be bb 34 bf a3 db 30 bf
       -0.5521825 -0.5402873 -0.7059897 -0.6908514
000370 89 d9 ec 3e 58 cf 1c 3f bc 29 1f 3f 6c 50 41 3f
       0.46259716 0.6125388 0.62173057 0.7551334
000380 9b 33 6e be 97 f1 3d bf 51 9f 0b 3f 9c 9a 17 3f
       -0.23261873 -0.7419676 0.5453997 0.5922029
000390 51 d7 0e bf 24 8b 55 3f e8 f0 a3 be 46 51 8b b5
       -0.55797297 0.83415437 -0.32019734 -1.0379961e-06
0003a0 02 86 76 3e 57 dc 27 bf 0a d3 6b 3d 6a e5 12 be
       0.24074557 -0.65570587 0.05757431 -0.14345327
0003b0 bd 09 00 bf 8c fe 29 bf 9a 95 ae b3 f5 b3 38 bf
       -0.5001486 -0.6640403 -8.129719e-08 -0.7214959
0003c0 0b 2e 41 3f 53 e4 1b 3e 6c f0 5a bf 72 8a 96 be
       0.7546088 0.15223818 -0.85523105 -0.294025
0003d0 8c e9 3d 3f c7 8f 03 be 76 b2 0d bf a6 7a 0f 3f
       0.7418449 -0.12847815 -0.55350435 0.5604652
0003e0 63 60 33 bf 3c 64 05 3f cc 07 0d bf d6 77 97 bb
       -0.7006895 0.5210607 -0.5509002 -0.00462244
0003f0 fb d3 22 3f f2 30 c4 3e 91 0b 4a bf 6f de 12 bf
       0.63604707 0.38318592 -0.789239 -0.57370657
