pretrained/Facebook_pretrained.pt (torch, 10471 bytes, 4 tensors)

convs.0.bias f4 [16]
000000 8d d9 f9 3d f3 04 f9 3d 7f 8f 8d bc 70 1c 1a 3d
       0.12199698 0.12159147 -0.017280338 0.037624776
000010 66 75 cf 3d 0e fe e3 3c 32 ec dd 3c 10 72 dc 3d
       0.10129814 0.027831104 0.027090166 0.10763943
000020 98 cb 86 3d 33 a3 1c 3d 26 22 8e 3c 33 0e 61 bb
       0.06581801 0.038241576 0.017350268 -0.0034340739
000030 37 bd 2e 3d b8 21 cb 3d 17 2b 82 3d a7 d7 67 bd
       0.042660918 0.09918541 0.06355875 -0.056602146

convs.0.lin.weight f4 [16, 128]
000000 30 c1 d0 3e 14 23 da bb 48 44 cc 3e 14 6d 66 3f
       0.4077239 -0.0066570137 0.39895844 0.9001019
000010 7b 24 47 3f 3b e3 92 3e 2e c6 49 3f f1 f0 18 3f
       0.7779004 0.28688988 0.78818023 0.5974265
000020 86 96 57 3d f8 7a 32 3e 0d 26 8c 3e 72 cd a6 3e
       0.052633785 0.17429721 0.2737278 0.32578617
000030 5a c7 8e 3f c4 5d 24 3f 29 97 48 3f 79 17 4e 3f
       1.1154587 0.64205575 0.7835565 0.80504566
000040 b1 5d 9e 3e 8a 75 f2 3e e0 15 38 3f d6 cd 60 bf
       0.30930856 0.473553 0.7190838 -0.8781408
000050 0c 61 2b 3c 20 bf 5c bf 68 83 45 3f c4 04 8e 3e
       0.0104601495 -0.86229134 0.77153635 0.2773801
000060 ee 2f aa be 05 96 ce 3d f4 14 62 be d2 4d e9 be
       -0.33239692 0.10087208 -0.22078305 -0.45567185
000070 27 6e 6b 3d fd 26 d6 be c9 fd 70 bf 9b bf 67 3f
       0.057478096 -0.4182662 -0.94137245 0.9052674
000080 d1 98 de be fd 7f a2 3f 48 df a0 be 76 73 01 be
       -0.43475965 1.2695309 -0.3142035 -0.12641701
000090 5d 50 95 3e 2a f3 88 3f e3 c8 53 be b6 5c 9e 3e
       0.29162875 1.0699208 -0.20682101 0.30930108
0000a0 b1 e0 ad 3e 9a b2 45 3e 35 f1 a5 be 57 a2 d8 3e
       0.33960488 0.19306412 -0.3241059 0.42311355
0000b0 8d e6 5f 3f 5a 21 81 bf d5 6e 5c bd 3d 04 0b bf
       0.8746117 -1.0088303 -0.053816635 -0.5430334
0000c0 3b fb 92 be df 88 d8 3e 65 7a 68 3f b8 5a 26 3d
       -0.287073 0.42291924 0.9081176 0.04061386
0000d0 e9 99 62 3e ec a5 89 be a6 45 8b 3f ff df 41 3e
       0.22129025 -0.268844 1.088063 0.18933104
0000e0 3b 59 2a bf b9 03 95 3f e5 f5 cf be 04 a2 b6 be
       -0.66542405 1.1641761 -0.4061729 -0.35670483
0000f0 be 27 07 be f1 53 a9 3d 1b e3 0e 3f fa fc 24 bf
       -0.13198754 0.08267964 0.55815285 -0.6444851
000100 02 41 2d 3c 5d 0d 98 be 26 30 0b 3f 7a 55 17 bf
       0.010574581 -0.29697695 0.54370344 -0.591148
000110 65 98 39 3e ec b6 48 be de 81 9a 3d 1e 47 a5 3f
       0.1812454 -0.19601029 0.075443015 1.2912328
000120 9b 1f 00 be 1b 7b 4c bf 2a 82 e6 3d 82 eb 80 bf
       -0.12512057 -0.79875344 0.112552956 -1.0071871
000130 cc c6 d2 be 43 bb 68 be a0 33 8c be 80 16 ba 3e
       -0.41167295 -0.22727685 -0.27383137 0.3634529
000140 72 fa 3b bd 9b 85 64 bd e5 0c 64 bf 79 cd 71 3e
       -0.04589314 -0.05579148 -0.89082175 0.23613538
000150 4b 0c a9 bd 4e b9 aa be e0 8c d7 be 63 8d 83 3e
       -0.08254298 -0.333445 -0.42099667 0.25693807
000160 a9 3d 54 bd 7f f0 69 3d 5a c1 4a 3f 65 8d 3a be
       -0.051816616 0.05711412 0.7920128 -0.18218
000170 b0 d2 d2 bd b9 4a e5 3d c6 2c 11 bf f5 ef b2 be
       -0.10294092 0.11195893 -0.56708944 -0.34948698
000180 e9 e5 8e be 36 aa 97 3e 30 9f 81 3f 92 40 b9 39
       -0.27909783 0.29622048 1.0126705 0.00035334058
000190 27 2c 72 be 83 b7 4a 3f a5 e3 12 be 46 c9 7b 3f
       -0.23649655 0.79186267 -0.14344652 0.98353994
0001a0 98 f2 70 3e 89 cd eb 3e e0 6e 45 bf 05 8e 7d 3f
       0.23530042 0.46055248 -0.77122307 0.9904483
0001b0 b1 31 46 3e 80 f0 37 bf d5 48 8b be 95 05 28 3e
       0.19354893 -0.7185135 -0.27204004 0.1640838
0001c0 4b 7f 81 3e be ec 31 bf 37 a5 04 3f dd a4 c4 be
       0.2529243 -0.69501865 0.518146 -0.3840703
0001d0 1a 64 cf bc 90 64 08 bf c3 7f a6 bd a7 6d e1 bd
       -0.025316287 -0.53278446 -0.08129837 -0.11007243
0001e0 84 31 1b bd 3c f0 07 3f ca 6e 41 bd b9 5f 97 be
       -0.03788902 0.53100944 -0.047224797 -0.29565218
0001f0 22 a9 f3 be 75 ba 89 3e 16 c1 12 3e e9 ae 79 3e
       -0.47589976 0.26900068 0.14331469 0.24383129
000200 5a c4 80 3e 9a ac 32 be 68 16 b6 3d 6e b7 b0 3f
       0.25149804 -0.17448655 0.088909924 1.3805978
000210 14 03 52 3e ab 34 4d 3f af 72 3b 3f dd 28 22 3f
       0.20508987 0.8015849 0.7322187 0.633436
000220 9c cb a9 3d 1c f6 44 bf a6 01 b1 3e 6c c6 38 3d
       0.082907885 -0.76938033 0.3457157 0.045111105
000230 f3 21 a3 3f 53 35 2a 3f ef 68 a9 3f e0 37 86 3f
       1.2744735 0.66487616 1.3235148 1.0485802
000240 9b e8 26 be 71 37 b5 3d f9 4b 06 3f a5 7d 6b bf
       -0.1629967 0.08848465 0.52459675 -0.91988593
000250 e8 1d 1e 3e f2 86 78 bf ee 4f b1 3d 21 f3 1d 3f
       0.15441096 -0.9708091 0.086578235 0.6169911
000260 38 9d 73 be e9 9b 10 3d 1e 69 69 be f0 9f d8 3e
       -0.23790443 0.035304938 -0.22794005 0.42309523
000270 82 63 23 bd 7e c4 9e be 17 72 77 bf 8a 12 8a bf
       -0.03988982 -0.31009287 -0.9665846 -1.0786908
000280 0b 6a dc be 1e f7 c8 3f 92 aa a7 3e c8 90 3f be
       -0.43049654 1.5700414 0.32747322 -0.18707573
000290 c4 fd 4c 3e 4e f4 02 3f c0 32 d4 bd a3 df f8 3d
       0.20018679 0.5115403 -0.10361242 0.1215203
0002a0 4f 37 05 3f 31 58 c0 3e 78 f0 df be 3f 9a 18 3c
       0.5203752 0.37567285 -0.4373815 0.009314119
0002b0 b6 c8 9f 3f 81 e0 7a bf d7 31 c6 3d b8 05 b6 be
       1.2483127 -0.97998816 0.09677475 -0.35551238
0002c0 ad c6 1e bf 4b d2 a5 3d bd f3 75 be 87 3f c9 be
       -0.62021905 0.08096751 -0.2401876 -0.3930628
0002d0 8a 04 0a 3f 61 e2 08 bd 0f 53 44 3f cf 3a b7 3c
       0.53913176 -0.033419017 0.7668924 0.02236691
0002e0 d9 72 9b 3e bd a9 33 bf f1 a1 b6 be e0 ef a1 be
       0.3036106 -0.70180875 -0.35670426 -0.31628323
0002f0 01 ed 6b 3c fc 72 9e 3e 39 c9 7f 3f f4 97 da be
       0.014399768 0.309471 0.99916416 -0.42694056
000300 62 b6 c1 3e 07 f7 a3 3e 43 8d 8f 3f cf 06 ee be
       0.3783446 0.32024404 1.1214985 -0.4648957
000310 24 14 bd 3e 7a 5d 2d bf e5 54 00 be df 69 e3 bd
       0.3692943 -0.6772076 -0.12532385 -0.11104178
000320 29 4e 1f 3e 2e 52 80 bf a7 46 f9 be 5f b6 25 bf
       0.1555716 -1.0025079 -0.48686716 -0.647314
000330 11 14 57 be ba 49 97 be bb f0 6d 3e e0 5e 05 3e
       -0.21003748 -0.29548436 0.23236363 0.13024473
000340 42 1a be 3e f3 26 c8 3e 3b 3d 2a bf c8 31 7a be
       0.37129408 0.39092216 -0.6649968 -0.24433053
000350 5c ac 00 be 9a 97 6c be 44 f1 71 bf ea ae 09 3e
       -0.1256575 -0.23104706 -0.9450877 0.1344563
000360 07 d0 c1 be ad 19 1e be a6 74 b1 3f c2 e2 ad bd
       -0.37854025 -0.15439482 1.3863723 -0.08490516
000370 85 d6 15 3e 78 25 bb be 65 98 0f bf 55 83 24 bd
       0.14632614 -0.36552024 -0.5609191 -0.04016431
000380 c7 28 33 bf ef 49 0b 3f 88 ee 8d bf e5 28 07 3e
       -0.69984096 0.5440969 -1.1088419 0.13199194
000390 8b 14 49 bf b6 66 a0 3e e4 5e 58 3e bb 06 62 3e
       -0.7854697 0.31328362 0.21129948 0.2207288
0003a0 05 dd 9f 3e 6e 7a b2 3e 38 64 f4 be ec 76 9a 3e
       0.31223312 0.3485903 -0.4773271 0.30168855
0003b0 a1 08 14 3c e2 da 3e be 0b 71 46 be 87 6f e5 bd
       0.00903526 -0.18638185 -0.1937906 -0.11202913
0003c0 d8 5d d8 3b 96 0b b8 bd 8e 9e c3 3f 67 b8 14 bf
       0.006602984 -0.08986585 1.5282762 -0.58093876
0003d0 14 2c 80 3e dc 51 f2 be 5d 1e 9d be af cf 03 be
       0.2503363 -0.4732808 -0.30687228 -0.12872194
0003e0 84 9a a1 3d b1 dd e7 3d 58 cf 61 3d 5b e5 4a 3e
       0.078908 0.11321581 0.05512938 0.19814055
0003f0 91 5f e9 3c ba f1 93 3e df 0e 09 be c7 0c dc bc
       0.028487952 0.2889536 -0.13384579 -0.026861561

convs.1.bias f4 [4]
000000 b0 09 2e 3d 76 c4 f4 bd 2d c9 15 3b b3 cd cb 3d
       0.042489707 -0.119515345 0.0022855506 0.099513434

convs.1.lin.weight f4 [4, 16]
000000 a2 86 96 3f 0b e4 ef 3f 30 b6 b2 33 2c 64 f5 bf
       1.1759837 1.8741468 8.3219106e-08 -1.9171195
000010 6e 6f fe bf 84 2c 00 c0 19 22 da bf c9 6b bc 3f
       -1.9877756 -2.002717 -1.7041656 1.4720393
000020 93 70 fb 3f 8d a3 f3 bf f6 6d 06 c0 30 19 d6 37
       1.964373 -1.9034287 -2.1004615 2.5522517e-05
000030 0f 0a bf bf 05 15 dd 3f e9 dd 9a 3f 2b 23 c1 37
       -1.4924945 1.727204 1.2098972 2.302377e-05
000040 62 cb e9 3f b7 84 0d be f2 03 95 38 89 2e 03 40
       1.8265193 -0.13820158 7.1056085e-05 2.0497153
000050 6c 27 fb 3f f3 ef be bf 34 84 be bf 80 99 e5 3f
       1.9621406 -1.4916977 -1.4884095 1.793747
000060 06 b5 10 c0 db 0f c9 bf 04 7d 94 bf 8f 42 61 b8
       -2.2610488 -1.5707964 -1.1600652 -5.3706168e-05
000070 c1 0c f2 bf c8 43 ef 3f cf c2 ee bf c1 dd 3a b6
       -1.8910142 1.869256 -1.8653201 -2.7845238e-06
000080 bf 87 94 bf c1 1a bc bf d5 2c e3 33 9f ca 0b 40
       -1.1603926 -1.4695665 1.0578666e-07 2.184242
000090 34 4f 86 bf fd 24 01 40 a9 1d 07 40 4d 61 cc bf
       -1.0492921 2.0178826 2.1111853 -1.5967194
0000a0 95 7e 09 c0 69 75 b5 3f 45 e5 01 40 b2 0f 62 37
       -2.148351 1.4176456 2.0296185 1.3474304e-05
0000b0 23 37 f9 3f bb c5 da bf 24 9f 13 c0 c7 1e 73 b8
       1.9469951 -1.7091593 -2.3065882 -5.796438e-05
0000c0 92 b6 ef bf 00 b4 dc bf d4 2c cf 37 65 24 00 c0
       -1.8727591 -1.7242432 2.4697198e-05 -2.0022213
0000d0 e2 18 bb bf 7c 54 bb 3f 27 38 3e 3d 28 12 f8 bf
       -1.4616969 1.4635158 0.04644027 -1.9380541
0000e0 b4 b7 e8 3f 60 83 dc 3f fd c0 e5 3f 6f 5b ea b6
       1.8181062 1.7227592 1.794952 -6.9843877e-06
0000f0 e8 30 8f 3f cc ce b9 bf 60 c3 0d 40 33 68 bd b7
       1.11868 -1.4516234 2.2150497 -2.2579077e-05
