pretrained/ogbn-products_pretrained.pt (torch, 78021 bytes, 4 tensors)

convs.0.bias f4 [128]
0.0996723 -0.14594856 0.050542887 -0.116479285 0.072175406 -0.18762223 -0.025405131 0.04522777
-0.3117163 -0.1294758 0.012949598 -0.051444687 -0.28013346 -0.116400085 -0.14957123 0.02884155
-0.28960285 -0.27598706 -0.024169499 0.07017788 -0.2899167 0.00480446 0.12626804 -0.15228005
-0.34088132 -0.131397 -0.30488762 -0.26866415 -0.034054913 -0.3543507 -0.06774327 -0.12139067
-0.043543264 -0.33632684 0.25550744 -0.12309275 -0.18606801 -0.19234376 -0.20900604 -0.276435
0.055565193 -0.20141819 0.20383303 -0.29415247 0.13544835 0.09540868 -0.12257899 -0.089659125
-0.47665295 0.17096208 0.04620246 -0.09260091 -0.25168106 -0.36504993 -0.08413472 0.15860151
-0.118993595 -0.256019 -0.20185857 -0.36061257 -0.2793206 -0.1910546 -0.18243077 -0.2176106
-0.3675435 -0.27152437 -0.08496773 -0.22307591 -0.22158703 0.39351133 0.13692948 -0.058990266
0.13792148 0.1949627 -0.11663592 -0.5304818 -0.51401496 0.3108392 0.012688043 0.075054854
-0.057500426 0.1123204 -0.24581864 0.021526877 0.15079139 0.026170816 -0.2658787 -0.0632836
-0.021305146 -0.46565065 -0.36072105 -0.0124113 -0.03436908 -0.4659796 -0.02212815 -0.09202754
-0.0030130092 0.016119216 -0.0998595 -0.2302643 0.02151138 0.1065632 -0.59998584 -0.44094697
-0.17715724 -0.24798165 0.014047747 -0.29692286 0.041232873 -0.16413541 -0.2594884 -0.19032261
0.042777434 -0.15562375 -0.21415249 -0.16248348 -0.36513236 0.011118018 -0.41940564 -0.09759937
-0.29710692 -0.17519177 -0.17273669 -0.16768542 0.101848125 0.1830903 -0.039165523 -0.38827318
00000000: fe20 cc3d 8a73 15be 0f06 4f3d b18c eebd
00000010: b3d0 933d 0b20 40be 6c1e d0bc c140 393d
00000020: 4799 9fbe 4e95 04be 8d2a 543c aab7 52bd
00000030: a76d 8fbe 2b63 eebd 3329 19be 1d45 ec3c
00000040: d346 94be 2d4e 8dbe 1dff c5bc 6cb9 8f3d
00000050: f66f 94be bb6e 9d3b 694c 013e 4def 1bbe
00000060: ff87 aebe ef8c 06be 3b1a 9cbe 598e 89be
00000070: 2a7d 0bbd 746d b5be fcbc 8abd ac9b f8bd
00000080: 6c5a 32bd 0833 acbe dfd1 823e 0d18 fcbd
00000090: 9d88 3ebe c3f5 44be ae05 56be e388 8dbe
000000a0: 5498 633d 9240 4ebe 9bb9 503e 279b 96be
000000b0: f9b2 0a3e a065 c33d b20a fbbd 349f b7bd
000000c0: db0b f4be af10 2f3e ca3e 3d3d 8ca5 bdbd
000000d0: 57dc 80be d3e7 babe d34e acbd 6f68 223e
000000e0: eab2 f3bd ec14 83be 03b4 4ebe 36a2 b8be
000000f0: 1c03 8fbe d1a3 43be 22cf 3abe 50d5 5ebe
00000100: a92e bcbe 3e05 8bbe 9003 aebd 036e 64be
00000110: b6e7 62be 517a c93e 3e37 0c3e c79f 71bd
00000120: 4a3b 0d3e 4da4 473e d0de eebd a8cd 07bf
00000130: 7c96 03bf 5126 9f3e 82e1 4f3c 5cb6 993d
00000140: 9185 6bbd 3d08 e63d e2b7 7bbe 2259 b03c
00000150: 0f69 1a3e 2e64 d63c 4121 88be d59a 81bd
00000160: 2188 aebc c369 eebe 6eb0 b8be c458 4bbc
00000170: 98c6 0cbd e194 eebe 1846 b5bc ef78 bcbd
00000180: e875 45bb 720c 843c 2383 ccbd 68ca 6bbe
00000190: a238 b03c cf3d da3d ac98 19bf cdc3 e1be
000001a0: b568 35be e7ee 7dbe 8528 663c 4606 98be
000001b0: cde3 283d 1d13 28be aadb 84be eee3 42be
000001c0: 6437 2f3d d55b 1fbe ca4a 5bbe 1262 26be
000001d0: a1f2 babe 5928 363c 56bc d6be 2ee2 c7bd
000001e0: 661e 98be 7965 33be e3e1 30be bab5 2bbe
000001f0: c095 d03d 067c 3b3e 076c 20bd becb c6be

convs.0.lin.weight f4 [128, 100]
-0.11654892 -0.37051198 -0.1103355 -0.1132838 0.1094768 0.03490338 -0.08122021 -0.08074854
0.14859366 0.202115 0.3541937 0.058458608 0.01219489 -0.00966722 0.13479626 -0.0152476635
-0.52404577 -0.076991044 0.22593929 0.09439524 -0.20914502 0.19194803 -0.10846264 0.37576902
-0.12696442 0.21623765 0.109695435 0.37445557 -0.15735273 0.08428493 0.0676525 -0.4443188
0.11659236 0.19101691 -0.101059 -0.022600356 0.54335743 -0.14560197 0.21398918 0.035994288
-0.26434842 -0.20958321 -0.15145545 0.14179714 0.3328461 -0.086718045 -0.13808443 0.0100094285
0.26361635 0.31311834 -0.03359402 0.17491183 -0.14722766 -0.02022655 0.058507334 -0.022638487
-0.4114036 0.20096655 -0.20336789 0.059940875 0.11551323 0.10261501 -0.07981915 0.1147502
-0.04624614 0.29162082 0.34233978 0.05799396 0.08616729 0.14197446 -0.042065065 0.38927293
-0.11432163 -0.33758113 -0.029428845 0.15217717 0.3872466 -0.055659357 0.26810673 0.022786392
0.3597134 0.30150175 0.087426625 0.05194961 0.1854402 0.014403481 -0.33099824 -0.24877065
0.013430948 -0.09803323 -0.16263308 -0.26392883 -0.08983465 0.121230796 0.18144438 0.17364033
0.34829435 0.18071619 -0.23431447 0.013825327 0.23008734 0.09318194 -0.028491585 -0.1305762
0.27240965 -0.06279816 -0.14970155 -0.017550673 -0.10704406 -0.044234112 -0.251278 0.322084
0.035232767 -0.03129832 0.16170847 -0.42973775 -0.4003255 -0.036287703 -0.33310306 0.030664157
0.26386234 -0.024006488 0.31153944 -0.19831318 -0.1440615 0.1421153 -0.31991398 0.2593796
-0.03732301 0.05244942 0.09700622 0.44559902 0.068041764 0.23059091 0.14793026 -0.0321696
0.0041772146 0.25169626 0.08979826 0.30870962 0.19989266 0.09594256 0.15529619 -0.25050876
-0.34829637 -0.04656884 0.20672923 0.17485686 0.12645386 0.06885647 0.4438878 -0.24772197
-0.09602262 -0.1221783 0.033309944 -0.033187523 0.049957495 0.40360788 0.100279056 -0.18628938
-0.110287115 -0.025419537 -0.07155365 -0.09335186 0.059069548 0.109927565 0.009299433 -0.26122326
0.14128673 -0.05547361 -0.06987359 0.04839974 -0.22691205 0.37125143 -0.07895517 0.03628607
0.01917162 0.12580991 0.1547406 0.0033901448 0.18669327 -0.07857365 -0.22691724 -0.19196588
0.20251043 0.27928442 -0.06359042 0.071739346 -0.1804352 -0.026631737 0.029270701 -0.074001685
0.28983626 0.07601942 -0.12675786 -0.17927586 -0.06739146 -0.09627775 -0.36786485 -0.16837838
-0.49439776 -0.24097598 0.3808123 -0.12646012 0.014733286 -0.18383679 -0.057989847 0.258833
0.19351412 0.2206725 -0.07598048 -0.113060676 -0.1733138 0.10499823 0.027945181 -0.00029721353
-0.0071955775 0.028133655 0.009618357 0.2801934 0.120724626 -0.19462918 0.51275206 0.21179044
-0.3102056 -0.45138952 0.29825062 0.17835273 -0.108057156 0.030937811 -0.4278557 -0.20683126
0.26346907 -0.17767558 0.2148514 -0.16489094 0.03347731 -0.045116663 0.29835686 0.20764308
-0.11851486 0.4443684 -0.30097145 0.13282369 0.066376306 -0.22779031 0.118176386 -0.19091335
0.3416931 0.35057285 -0.063602425 -0.1525495 -0.19417761 -0.15562074 -0.13556707 0.0043522203
00000000: 33b1 eebd bfb3 bdbe 94f7 e1bd 5601 e8bd
00000010: 5f35 e03d d9f6 0e3d c856 a6bd 7e5f a5bd
00000020: f028 183e 3cf7 4e3e e058 b53e 4b72 6f3d
00000030: 13cd 473c 4263 1ebc 0808 0a3e 56d1 79bc
00000040: dd27 06bf 7bad 9dbd a15c 673e 4b52 c13d
00000050: 1d2a 56be 068e 443e a921 debd cc64 c03e
00000060: f602 02be 676d 5d3e 00a8 e03d a4b8 bf3e
00000070: 1321 21be 949d ac3d 658d 8a3d c17d e3be
00000080: fac7 ee3d f099 433e 05f8 cebd 6224 b9bc
00000090: 7919 0b3f af18 15be fb1f 5b3e bf6e 133d
000000a0: ad58 87be fb9c 56be 2317 1bbe 4533 113e
000000b0: ce6a aa3e 3b99 b1bd 0166 0dbe 96fe 233c
000000c0: b9f8 863e 0c51 a03e e299 09bd 161c 333e
000000d0: d9c2 16be 26b2 a5bc 63a5 6f3d 5974 b9bc
000000e0: 7ea3 d2be 2dca 4d3e ac3f 50be 9084 753d
000000f0: 3392 ec3d d227 d23d 3978 a3bd 2702 eb3d
00000100: 986c 3dbd 534f 953e 2947 af3e 138b 6d3d
00000110: 7a78 b03d c161 113e 6b4c 2cbd c84e c73e
00000120: 7521 eabd 6fd7 acbe c314 f1bc 55d4 1b3e
00000130: 3045 c63e 11fb 63bd 4945 893e 87aa ba3c
00000140: 5b2c b83e 705e 9a3e bb0c b33d 1dc9 543d
00000150: 09e4 3d3e 94fc 6b3c 9a78 a9be bcbd 7ebe
00000160: 7b0d 5c3c a5c5 c8bd 4989 26be ae21 87be
00000170: 3bfb b7bd da47 f83d 8ecc 393e c5ce 313e
00000180: a353 b23e aa0d 393e 22f0 6fbe a083 623c
00000190: 049c 6b3e 2cd6 be3d 2f67 e9bc c4b5 05be
000001a0: 4779 8b3e 529c 80bd 5d4b 19be 6ec6 8fbc
000001b0: eb39 dbbd d42e 35bd 83a7 80be 32e8 a43e
000001c0: 3c50 103d ab32 00bd e896 253e 9606 dcbe
000001d0: 77f7 ccbe 6aa2 14bd 7c8c aabe 6633 fb3c
000001e0: f718 873e 41a9 c4bc 1982 9f3e 9c12 4bbe
000001f0: dc84 13be ac86 113e c4cb a3be 67cd 843e
00000200: 03e0 18bd 34d5 563d 32ab c63d 8e25 e43e
00000210: 7b59 8b3d 0620 6c3e 087b 173e 45c4 03bd
00000220: 04e1 883b 55de 803e 26e8 b73d 300f 9e3e
00000230: a9b0 4c3e 887d c43d f705 1f3e af42 80be
00000240: e753 b2be f8be 3ebd d4b0 533e ad0d 333e
00000250: 1f7d 013e 9f04 8d3d 4345 e33e d4aa 7dbe
00000260: 82a7 c4bd 9e38 fabd 0270 083d a4ef 07bd
00000270: 3ba0 4c3d b1a5 ce3e 1b5f cd3d a5c2 3ebe
00000280: 36de e1bd a23c d0bc b88a 92bd 432f bfbd
00000290: e9f2 713d b421 e13d a65c 183c 0ebf 85be
000002a0: 78ad 103e 4c38 63bd e219 8fbd ce3e 463d
000002b0: a25b 68be ab14 be3e 40b3 a1bd b4a0 143d
000002c0: cd0d 9d3c 50d4 003e 5274 1e3e 312d 5e3b
000002d0: 852c 3f3e 39eb a0bd fe5c 68be b492 44be
000002e0: e55e 4f3e 5efe 8e3e b23b 82bd 14ec 923d
000002f0: 01c4 38be cd2a dabc 1cc9 ef3c 328e 97bd
00000300: 6b65 943e 12b0 9b3d d0cc 01be 1794 37be
00000310: 8904 8abd 452d c5bd c858 bcbe 626b 2cbe
00000320: b421 fdbe 68c2 76be d4f9 c23e c37e 01be
00000330: e163 713c b63f 3cbe c386 6dbd c285 843e
00000340: 9128 463e f9f7 613e a79b 9bbd 5b8c e7bd
00000350: 2c79 31be 5009 d73d 4bed e43c 53d3 9bb9
00000360: e1c8 ebbb 8d78 e63c 5096 1d3c 8275 8f3e
00000370: 793e f73d df4c 47be b843 033f 98df 583e
00000380: 45d3 9ebe 871c e7be 4eb4 983e 19a2 363e
00000390: 124d ddbd 4b71 fd3c e70f dbbe 93cb 53be
000003a0: 6be5 863e 96f0 35be 0102 5c3e 2cd9 28be
000003b0: 811f 093d 40cc 38bd 3bc2 983e 63a0 543e
000003c0: ebb7 f2bd 4184 e33e ee18 9abe ef02 083e
000003d0: 4df0 873d dd41 69be 7606 f23d ca7e 43be
000003e0: 66f2 ae3e 497e b33e fd41 82bd f035 1cbe
000003f0: 7fd6 46be 0b5b 1fbe 18d2 0abe 129d 8e3b

convs.1.bias f4 [47]
-0.012888223 0.11618195 0.009665036 0.37887087 0.117990695 -0.46528986 0.21145463 1.0540783
0.061944496 0.012214659 -0.024488408 0.8688432 -0.61441666 -0.63503313 -0.28078195 -0.030553957
-0.28860423 -0.11202121 -0.32410657 -0.018688334 -0.032543864 -0.5482143 -0.25281343 -0.22642583
-0.171219 -0.2110167 -0.4183609 -0.18092933 -0.51063704 0.79708844 -0.113004744 -0.41060206
-0.30638847 -0.17841153 -0.282484 -0.28464115 -0.31361356 -0.21574087 -0.3411962 -0.16986491
-0.406305 -0.14033398 -0.14169294 -0.17996567 -0.12665102 -0.12855059 -0.142154
00000000: 2029 53bc cdf0 ed3d 195a 1e3c 5dfb c13e
00000010: 1ba5 f13d 793a eebe 9087 583e 0aec 863f
00000020: 83b9 7d3d fe1f 483c ea9b c8bc 826c 5e3f
00000030: 694a 1dbf 8891 22bf a7c2 8fbe 4b4c fabc
00000040: efc3 93be 606b e5bd 4cf1 a5be 4718 99bc
00000050: b74c 05bd c657 0cbf c370 81be 2cdc 67be
00000060: 0954 2fbe c314 58be 6633 d6be 8a45 39be
00000070: 1cb9 02bf fd0d 4c3f 086f e7bd 6f3a d2be
00000080: f3de 9cbe 83b1 36be bea1 90be 7cbc 91be
00000090: f591 a0be 2deb 5cbe 45b1 aebe 11f1 2dbe
000000a0: 3507 d0be b6b3 0fbe f417 11be ec48 38be
000000b0: ceb0 01be c4a2 03be d190 11be

convs.1.lin.weight f4 [47, 128]
0.07051585 -0.0072253277 -0.22466668 -0.042847425 0.117185354 -0.1782743 0.12486831 -0.09008515
-0.09373297 -0.17813668 -0.19488224 0.05489275 0.14332472 0.11587252 -0.14104646 0.17869107
0.23197335 -0.20082939 0.17439085 0.17837803 0.26038298 0.17711218 -0.109797016 -0.009441997
-0.06965183 -0.036139734 -0.024055313 0.15440735 -0.03835207 -0.016672818 -0.10998677 0.18714401
0.15872104 0.043068245 -0.10962561 -0.030472506 0.11379975 0.1632152 0.077106416 -0.056386743
-0.14008008 0.11392527 0.11090258 0.16474734 -0.035670586 -0.06635955 -0.3493118 -0.018881418
0.18712795 0.29619145 -0.17137285 0.2286573 0.22439215 0.124994196 0.09814535 0.028945133
0.18807472 0.049142305 -0.42177665 -0.22284627 0.023896128 -0.011631081 0.123107605 -0.106771424
0.17111552 -0.17067444 0.18551087 -0.070524 0.21176028 -0.11508932 -0.2269071 0.18790577
-0.27204013 0.061338972 0.0702967 0.2422926 0.23953372 -0.26502064 0.10318939 0.19333018
-0.23717022 0.23135512 0.065911144 -0.1489571 -0.09761334 -0.1040108 0.1126587 0.100756526
0.17112546 -0.25431463 -0.063134864 -0.20937598 -0.23722874 -0.007896068 -0.018786853 -0.052127846
-0.22285034 0.18895836 0.30553925 -0.08678188 0.14488098 0.1779408 -0.058885474 -0.04799362
-0.128077 0.1124068 0.071826264 0.19912043 0.04171813 0.37888232 0.112242445 -0.055079404
-0.023286493 0.15357976 -0.046143375 -0.26867884 -0.11395742 0.014343951 -0.19810711 -0.3446667
0.034915067 0.21886583 -0.044417337 0.014428569 0.00320127 -0.21421708 -0.22526194 0.14799926
-0.13904831 0.14378493 -0.115622655 -0.02630246 -0.24859802 0.026817895 -0.15683563 -0.20818314
-0.12763643 -0.22155492 0.19646572 0.18355721 0.14684571 -0.0731369 0.05079348 0.031749863
-0.06648361 -0.048847485 -0.23411988 0.10247161 -0.22917615 -0.037417307 -0.16206895 -0.022898292
-0.2180367 -0.2610985 0.024664469 0.035004906 0.07536655 0.12859304 0.36147237 0.06407646
0.0733974 0.06781616 -0.040850252 0.14999014 -0.15341972 -0.22573958 -0.09917859 0.008360458
0.16421913 -0.020771502 -0.2264174 0.1840773 0.20958918 0.28454527 -0.15537827 0.16980521
-0.15565701 0.11724953 -0.16603692 0.24500163 0.037353788 -0.11682118 0.28620195 0.2041378
0.009821114 -0.01498532 0.19480205 0.15463729 -0.26641104 0.054747052 -0.050643265 -0.22863883
-0.3117776 0.08645075 0.15345533 0.20458205 0.016927041 0.18115032 -0.11741269 -0.49042425
0.21896791 -0.025619248 0.24757469 0.020519735 0.20602338 0.104587294 0.23378937 0.2168267
-0.0443287 0.102713004 0.13202979 0.108132444 0.16277501 0.087899566 0.12337873 0.12727623
-0.0138574485 -0.03878436 -0.29260197 0.27514732 -0.10910273 -0.26780176 0.17122394 -0.21076602
0.032213684 0.10216955 0.21214849 0.1350992 0.18451786 0.1261267 -0.13790224 -0.07968242
-0.10019959 -0.07183685 -0.34741753 -0.11474385 0.10151263 -0.36922812 0.0039395043 0.16714229
0.2530742 0.15572608 -0.07922378 0.12102272 0.037685737 -0.1337859 0.06606303 0.18579118
-0.119542666 0.010236276 0.16576183 -0.047203273 -0.029388178 -0.1497095 -0.18576784 -0.15884715
00000000: 9d6a 903d 71c2 ecbb 060f 66be c880 2fbd
00000010: e0fe ef3d 8a8d 36be f5ba ff3d 907e b8bd
00000020: 12f7 bfbd 7669 36be 368f 47be 38d7 603d
00000030: b7c3 123e 924e ed3d 7c6e 10be cbfa 363e
00000040: 6c8a 6d3e 38a6 4dbe 8493 323e bba8 363e
00000050: eb50 853e e55c 353e 42dd e0bd 9bb2 1abc
00000060: 9ea5 8ebd 4207 14bd a60f c5bc f61c 1e3e
00000070: 0f17 1dbd 6f95 88bc be40 e1bd aea2 3f3e
00000080: c587 223e 5468 303d 6483 e0bd 7aa1 f9bc
00000090: d80f e93d e321 273e f8e9 9d3d c9f5 66bd
000000a0: 2771 0fbe a751 e93d e420 e33d 87b3 283e
000000b0: 521b 12bd 84e7 87bd ffd8 b2be 34ad 9abc
000000c0: 789e 3f3e 68a6 973e 5d7c 2fbe 2425 6a3e
000000d0: 0ec7 653e f5fc ff3d 6e00 c93d 581e ed3c
000000e0: a996 403e 7149 493d 1cf3 d7be d031 64be
000000f0: d0c1 c33c 4a90 3ebc d71f fc3d faaa dabd
00000100: e838 2f3e 48c5 2ebe 90f6 3d3e e36e 90bd
00000110: b0d7 583e f3b3 ebbd 565a 68be 5f6a 403e
00000120: d848 8bbe 933e 7b3d b7f7 8f3d 8d1b 783e
00000130: 5448 753e c9b0 87be f554 d33d 59f8 453e
00000140: c0dc 72be 5be8 6c3e 6cfc 863d 3688 18be
00000150: 81e9 c7bd 9d03 d5bd 9bb9 e63d 7059 ce3d
00000160: 833b 2f3e 8735 82be da4c 81bd a866 56be
00000170: 17ec 72be 825e 01bc e3e6 99bc 0284 55bd
00000180: e132 64be 4d7e 413e a46f 9c3e b3ba b1bd
00000190: ae5b 143e 1d36 363e e531 71bd f594 44bd
000001a0: 9e26 03be 8935 e63d a619 933d 3ae6 4b3e
000001b0: a1e0 2a3d ddfc c13e 5edf e53d f19a 61bd
000001c0: 51c3 bebc 0344 1d3e d600 3dbd 4690 89be
000001d0: 8262 e9bd e402 6b3c 97dc 4abe 2778 b0be
000001e0: 1a03 0f3d 5d1e 603e f4ee 35bd ce65 6c3c
000001f0: 66cc 513b b95b 5bbe 11ab 66be 1e8d 173e
00000200: ae62 0ebe 5b3c 133e 92cb ecbd 4278 d7bc
00000210: 7b90 7ebe 34b1 db3c 8599 20be f62d 55be
00000220: 20b3 02be 4bdf 62be 4f2e 493e 6cf6 3b3e
00000230: b95e 163e cdc8 95bd d30c 503d 250c 023d
00000240: 8f28 88bd 4d14 48bd 1fbd 6fbe a3dc d13d
00000250: 27ad 6abe e442 19bd 67f5 25be 3395 bbbc
00000260: 0345 5fbe b4ae 85be 240d ca3c 4e61 0f3d
00000270: c759 9a3d e5ad 033e e812 b93e 853a 833d
00000280: 6051 963d 33e3 8a3d 9852 27bd 0497 193e
00000290: 0f1a 1dbe 4728 67be 251e cbbd 4dfa 083c
000002a0: 0f29 283e ff28 aabc f7d9 67be c27e 3c3e
000002b0: 8c9e 563e ebaf 913e 7b1b 1fbe 6be1 2d3e
000002c0: 8d64 1fbe 8620 f03d 9505 2abe b5e1 7a3e
000002d0: 4900 193d f13f efbd 1089 923e 8009 513e
000002e0: bde8 203c fd84 75bc 307a 473e 3d59 1e3e
000002f0: 0767 88be 723e 603d 506f 4fbd 4c20 6abe
00000300: 50a1 9fbe 170d b13d 6523 1d3e f57d 513e
00000310: 94aa 8a3c 787f 393e 1076 f0bd e318 fbbe
00000320: 2039 603e 75df d1bc 3884 7d3e 0119 a83c
00000330: cbf7 523e dd31 d63d 7b66 6f3e d207 5e3e
00000340: 0392 35bd 325b d23d d132 073e 8b74 dd3d
00000350: 7eae 263e b004 b43d fdad fc3d b354 023e
00000360: 5a0a 63bc 59dc 1ebd edcf 95be 1ce0 8c3e
00000370: 4171 dfbd 501d 89be 5455 2f3e 0cd3 57be
00000380: 7ff2 033d 453e d13d 743d 593e 7257 0a3e
00000390: 40f2 3c3e 5c27 013e 3f36 0dbe 8930 a3bd
000003a0: 7135 cdbd 331f 93bd b6e0 b1be d3fe eabd
000003b0: dbe5 cf3d 780b bdbe f516 813b 5927 2b3e
000003c0: f192 813e a876 1f3e 1440 a2bd c3da f73d
000003d0: 5c5c 1a3d 2cff 08be 0e4c 873d 0b40 3e3e
000003e0: c9d2 f4bd 0eb6 273c 78bd 293e 3858 41bd
000003f0: 7abf f0bc 724d 19be ed39 3ebe d4a8 22be
