pretrained/PubMed_pretrained.pt (torch, 34203 bytes, 4 tensors)

convs.0.bias f4 [16]
0	0x3cfd92ee	0.03095385
1	0x3d5ba31e	0.053622358
2	0x3dbad768	0.09123117
3	0xbc9cb4c9	-0.019129174
4	0x3d99e601	0.07514573
5	0x3e606a8b	0.21915643
6	0x3e4f044d	0.20216484
7	0x3cd59105	0.026070127
8	0xbd32ca3c	-0.043649897
9	0x3dabd0ee	0.083894596
10	0x3cd4e620	0.025988638
11	0x3db50cc4	0.088403255
12	0x3da1bd49	0.078974314
13	0x3dde1648	0.108440936
14	0x3df4d7db	0.11955234
15	0x3def4603	0.116832756

convs.0.lin.weight f4 [16, 500]
0	0x3fd39d18	1.6532316
1	0xbd7be578	-0.061498135
2	0x3db0519b	0.08609315
3	0xbd644cac	-0.055737182
4	0x3ce0a2a2	0.0274213
5	0xbe575c6b	-0.21031348
6	0x3f0d71ac	0.55251575
7	0x3d88b2ba	0.066747144
8	0x3f81a162	1.0127375
9	0x3d9fd525	0.07804326
10	0xbe04e0d9	-0.12976398
11	0xbdc0a6b6	-0.094067976
12	0x3e4f5444	0.20246989
13	0x3d68ea11	0.056863848
14	0x3ece0675	0.402393
15	0x3f45cf5b	0.77269524
16	0xbde7c7d3	-0.1131741
17	0xbe30101c	-0.17193645
18	0x3d2f00c2	0.042725332
19	0x3de0793c	0.109606236
20	0xbdd03857	-0.10166996
21	0x3e9dc4b2	0.3081413
22	0x3e3a3bf9	0.1818694
23	0x3e1ef82e	0.1552436
24	0x3ec396c5	0.38200966
25	0x3f7ca305	0.9868625
26	0x3e69c7c0	0.22830105
27	0x3dc910ba	0.098176435
28	0xbe46740f	-0.1938021
29	0x3eacb725	0.33733478
30	0x3f0b75e5	0.5447677
31	0x3f844fa7	1.0336808
32	0x3f8a80c2	1.0820544
33	0x3ebcde6a	0.36888438
34	0x3cfb07e1	0.030643405
35	0x3d3d1fb3	0.04617281
36	0x3da3add7	0.07992142
37	0xbc9e2058	-0.019302532
38	0x3f32a9f1	0.6979056
39	0xbea2b8b5	-0.31781545
40	0x3f355954	0.7083943
41	0x3d6c6985	0.05771782
42	0x3e3dbb91	0.18528582
43	0x3e5e0ef6	0.21685395
44	0xbd47c0cb	-0.048767846
45	0xbc9648f3	-0.018345332
46	0xbe15f3fd	-0.14643855
47	0x3dc621b8	0.096744
48	0x3e3f4b90	0.18681169
49	0x3d891801	0.066940315
50	0x3e30a207	0.17249309
51	0xbe58d89b	-0.21176378
52	0x3e624593	0.22096853
53	0x3eb10787	0.34576055
54	0x3ecbe3be	0.3982219
55	0x3e867427	0.26260492
56	0xbd4127ed	-0.047157217
57	0xbd23b11f	-0.039963838
58	0xbdc9efb5	-0.098601736
59	0x3ca91956	0.020641964
60	0x3f065481	0.5247269
61	0x3c63aaa5	0.013895665
62	0x3e46638b	0.1937391
63	0x3d6d18c6	0.057884954
64	0x3df61e28	0.120174706
65	0x3eabd17f	0.3355827
66	0x3e69d1e0	0.22833967
67	0x3e7136d2	0.23556069
68	0x3b08d5a7	0.00208793
69	0x3ce2c753	0.027682936
70	0xbea9b46e	-0.3314547
71	0x3e640136	0.22266087
72	0x3d7548fd	0.05988406
73	0x3c6db9c5	0.014509623
74	0x3e64277f	0.22280692
75	0xbd81ecf5	-0.06344024
76	0x3da521b6	0.080630705
77	0x3e499c68	0.1968857
78	0x3e442d49	0.191579
79	0x3c8e0db6	0.017340522
80	0x3cf94300	0.030427456
81	0x3de9f1dd	0.11423085
82	0x3e5346e1	0.20632507
83	0x3c9d9158	0.019234344
84	0x3dcef3ef	0.101051204
85	0xbe4f0497	-0.20216595
86	0xbdcaeede	-0.099088416
87	0xbc40faa2	-0.0117785055
88	0xbd92c0eb	-0.071657024
89	0xbf36be0d	-0.71383744
90	0xbdc56dae	-0.0964006
91	0xbcb65be8	-0.022260621
92	0x3e6b8774	0.2300089
93	0x3ef19d99	0.4719055
94	0x3df66f2d	0.12032924
95	0x3d71d433	0.05904026
96	0xbd86bafc	-0.06578633
97	0x3cec75c5	0.02886475
98	0x3dde365a	0.108502105
99	0x3dc7a4ef	0.097482555
100	0x3d23b830	0.039970577
101	0x3e065a8d	0.1312048
102	0xbdb2df0d	-0.0873395
103	0xbe7d17e0	-0.24716139
104	0xbdcc4256	-0.0997359
105	0x3d315c8b	0.043301146
106	0xbd5d7faf	-0.054076847
107	0x3e1090c1	0.14117719
108	0xbd8bd633	-0.06827965
109	0x3cbcd4b4	0.023050644
110	0x3f1a5595	0.6028684
111	0x3e95b325	0.2923824
112	0xbce1fa6f	-0.027585236
113	0x3e38c7af	0.18044923
114	0xbd943011	-0.072357304
115	0xbd55a380	-0.05215788
116	0xbe339f9e	-0.17541358
117	0x3d3404cf	0.0439499
118	0xbd657b75	-0.05602594
119	0x3eb4563e	0.35222048
120	0xbd87d0ba	-0.06631608
121	0xbe01d6dd	-0.1267962
122	0x3caa25d1	0.020769985
123	0xbe197883	-0.14987378
124	0xbdb33331	-0.08749998
125	0x3d0445e1	0.032293204
126	0xbc9b6769	-0.018970208
127	0xbe44c399	-0.1921524
128	0xbde7751e	-0.11301635
129	0x3c58cd52	0.013232546
130	0xbdc6c2a8	-0.097050965
131	0xbe3a8ca0	-0.18217707
132	0x3e1bca3b	0.15213864
133	0x3cce70f7	0.02520035
134	0xbd5c35af	-0.053762134
135	0xbe2b49d2	-0.16727379
136	0xbd98cd09	-0.07460982
137	0xbe0b9f54	-0.13634998
138	0xbd9f2bc4	-0.077720195
139	0x3dbaff05	0.09130672
140	0x3d9cf2c7	0.076634936
141	0x3d91f940	0.07127619
142	0x3e0a9118	0.13531911
143	0xbc4edf8b	-0.012626539
144	0xbe317fa0	-0.17333841
145	0xbd00aeaf	-0.03141659
146	0x3ec93f7e	0.39306253
147	0x3d00b22d	0.03141992
148	0xbd7771c7	-0.06041124
149	0x3df21260	0.11819911
150	0x3ddcde71	0.10784615
151	0xbbec45e9	-0.0072104824
152	0xbd28716b	-0.04112379
153	0x3e3effb3	0.18652229
154	0x3defac98	0.117028415
155	0xbd0406ca	-0.032233037
156	0x3e6f5070	0.23370528
157	0x3d97b84e	0.074082
158	0xbdf88379	-0.121344514
159	0x3effddc3	0.49973878
160	0xbf1ae2bb	-0.60502213
161	0x3e43d52f	0.19124292
162	0xbe1ce466	-0.15321502
163	0xbdc9ded9	-0.09856958
164	0x3e37b487	0.1793996
165	0x3e00ac5a	0.12565747
166	0x3c7c0085	0.015380983
167	0x3e29dacb	0.16587369
168	0x3e6dc652	0.23220184
169	0x3f26e33f	0.651905
170	0xbdbd93dd	-0.09256718
171	0x3f5322cb	0.82474965
172	0x3e755b53	0.23960619
173	0x3e4a96eb	0.19784133
174	0x3de2504d	0.110504724
175	0x3e908cd6	0.2823245
176	0x3bad946c	0.0052972343
177	0x3de79fdf	0.1130979
178	0x3e39964c	0.1812374
179	0x3ee16701	0.44023898
180	0x3d8cbec2	0.06872322
181	0xbdb35b27	-0.0875762
182	0xbd93fd1d	-0.07226012
183	0x3f237b13	0.6385967
184	0x3f889c21	1.0672647
185	0x3ec63af0	0.3871684
186	0xbd126a72	-0.035746045
187	0x3ed4feb4	0.41600573
188	0xbdaa7d49	-0.083246775
189	0x3e098827	0.13430844
190	0x3bcd2d5a	0.00626151
191	0x3d716d1f	0.058941957
192	0x3e8bdcfb	0.27317032
193	0x3ccc047b	0.02490448
194	0xbbbf7d71	-0.005843811
195	0x3c8ddbd0	0.017316729
196	0xbe9f528e	-0.31117672
197	0x3e5e8d16	0.21733508
198	0xbd1f4f0b	-0.03889374
199	0x3e232736	0.15932927
200	0x3ebe4d2a	0.37168247
201	0xbe189adc	-0.14902824
202	0x3ea5f47f	0.32413098
203	0xbdbfcac4	-0.09364846
204	0x3e128162	0.14307168
205	0x3aad4af9	0.0013221196
206	0xbd0add08	-0.033902198
207	0xbcd676b9	-0.026179658
208	0x3d6aafc5	0.057296533
209	0x3d7c38be	0.06157755
210	0xbdfb8df0	-0.12282932
211	0xbdbde9d9	-0.092731185
212	0xbe9b1f12	-0.30297142
213	0xbe3cfc2b	-0.1845557
214	0xbe038c90	-0.12846589
215	0xbdaa1c82	-0.08306219
216	0x3dcdd004	0.100494415
217	0xbdcdaa61	-0.10042263
218	0x3cfa55dd	0.03055852
219	0xbe820117	-0.25391456
220	0x3d4dd15e	0.050248496
221	0xbddc6106	-0.10760693
222	0x3d14cca6	0.03632798
223	0x3e949311	0.29018453
224	0xbd637d59	-0.055539463
225	0x3bf71bdf	0.0075411643
226	0xbd924290	-0.07141602
227	0xbe4b3a8c	-0.19846553
228	0xbd5cda92	-0.053919382
229	0xbdfdd4d1	-0.12394107
230	0xbe3d86ac	-0.18508404
231	0x3e71b68c	0.23604792
232	0xbdf1ef0d	-0.118131734
233	0x3d894932	0.06703414
234	0xbe416efe	-0.18889996
235	0xbeb82438	-0.35965133
236	0x3f11c3ff	0.5693969
237	0xbde563b0	-0.112006545
238	0x3e4fcc55	0.2029279
239	0xbeeaf8e2	-0.45893008
240	0x3a8affcd	0.0010604799
241	0xbe778037	-0.24170004
242	0x3da5efcf	0.081023805
243	0xbda5e198	-0.08099669
244	0xbeb47d9f	-0.3525209
245	0xbd98e8d6	-0.07466285
246	0xbd9d43e0	-0.07678962
247	0xbebc2217	-0.36744758
248	0x3e96d803	0.2946168
249	0x3dad7a74	0.08470622
250	0x3d712b3b	0.05887912
251	0xbf02fea1	-0.5116978
252	0x3d13bdfa	0.036069848
253	0xbea4407b	-0.32080445
254	0xbe716816	-0.23574862
255	0xbdecbba9	-0.11559231

convs.1.bias f4 [3]
0	0xbf227f3d	-0.634754
1	0x3e3c5526	0.18391857
2	0x3f042805	0.51623565

convs.1.lin.weight f4 [3, 16]
0	0x3fd522bc	1.6651225
1	0xbfd56aca	-1.6673214
2	0x3f9e74a9	1.2379352
3	0x3856571c	5.1102703e-05
4	0x3fcf27ab	1.6183981
5	0xbfd8cea7	-1.6938065
6	0xbff89981	-1.9421846
7	0x3fe749bd	1.8069378
8	0x35b4338d	1.3426048e-06
9	0x3fbd329f	1.4781073
10	0x3fd051ef	1.6275004
11	0x3f73ee17	0.9528517
12	0x3fd93841	1.6970292
13	0x3fc5b34c	1.5445342
14	0xbf67c4e0	-0.9053478
15	0xbfa0c6e7	-1.25607
16	0xbfefaf07	-1.8725289
17	0x3ffe0649	1.9845668
18	0x3f99ef77	1.2026204
19	0x37db9877	2.6177831e-05
20	0xbfec5b99	-1.8465453
21	0x3f9aa528	1.2081652
22	0x3fbf53fc	1.4947505
23	0xbfe8584d	-1.8151947
24	0x3602cfb7	1.9492416e-06
25	0x3fb12edc	1.3842425
26	0xbfd52602	-1.6652224
27	0x3fcafd2e	1.5858514
28	0x3fc9b2da	1.5757706
29	0xbfe2772e	-1.7692621
30	0xbffb26b4	-1.9621186
31	0xbfe87922	-1.8161967
32	0xbfd83381	-1.6890718
33	0xbfeddb57	-1.8582562
34	0xbffdb198	-1.9819822
35	0x36e5d654	6.849683e-06
36	0x3eaf37e5	0.34222332
37	0x3f52fac5	0.82413894
38	0x3f9563f8	1.1671133
39	0xbfc2de2d	-1.5224053
40	0xb6a1eb4c	-4.825566e-06
41	0xbfccb378	-1.599227
42	0xbfa57429	-1.2926074
43	0xbffd48ef	-1.9787883
44	0xbfc04328	-1.5020494
45	0x3fdeff6e	1.7421701
46	0x4005db25	2.0915005
47	0x3fe0cf06	1.7563179
