pretrained/Reddit_pretrained.pt (torch, 331803 bytes, 4 tensors)

convs.0.bias f4 [128]
00000000: 51a3 86bf bd01 2bbf a8b7 7ebf 43ad 54bf
00000010: bd38 c6be 9e77 a3bf bae1 dabe 702c 38bf
00000020: fa2a d4be 5524 a7bf 06ca 0bbf e918 4fbf
00000030: a653 1ebf 7a05 45bf e349 bfbe ebfe 1bbf
00000040: 267c a9bf a07a 37bf 2373 efbe 9116 6fbf
00000050: ebe9 09bf eb13 08bf 8f7a 4cbf 4d83 7dbf
00000060: 55cf 5cbf 533d 7fbf 9084 74be d4ef debf
00000070: c673 33bf e070 afbf eafa 1bbf 000f d7be
00000080: a15b 22bf c84b 3ebf 8507 62bf 302c aebe
00000090: 85a6 54bf 8a6f 33bf 4732 4dbf 3ec9 a4be
000000a0: 6069 ccbe 47a5 12bf 6c0f 1cbf acbe 45bf
000000b0: 5ebb 2dbf 6787 acbf 8f42 a1be 17ce 15bf
000000c0: eb80 6cbf 1240 30bf 6945 c6be 505b 58bf
000000d0: 9c76 2bbf 0321 3dbf 8f6c 6abf 8660 fcbe
000000e0: c04e 39bf 9b23 0dbf 61e6 50bf 6cd9 60bf
000000f0: 3489 33bf 8553 69bf a3bc 90bf a6d0 01bf
00000100: 8bbe f0be c38c 61bf 90e4 9bbf 275f 12bf
00000110: 8fe4 03bf 977d 98bf 1789 dbbe 9a5f 0dbf
00000120: b45c b2be beae 04bf 0af9 fabe e263 61bf
00000130: 6a2f 83bf e3a0 2cbf e230 d9be dfdc bfbf
00000140: baaf d9be cc4e 7bbf 3823 2cbf 2237 38bf
00000150: f432 9abf 1d49 3dbf 5dff 8ebf ad1c fcbe
00000160: dea3 47bf 8347 0ebf e299 09bf 2d7b 65bf
00000170: 057f e4be 6189 97bf 1a40 23bf 4c8f 94bf
00000180: d07a 99bf b691 62bf 7795 5fbf b664 60bf
00000190: 8a75 1cbf 2341 51bf a5dc 0ebf 4aa7 52bf
000001a0: f673 a2bf 99e7 2bbf 27a4 02bf 39e9 4dbf
000001b0: 1391 4cbf bdf8 56bf df87 acbe bf4f 68bf
000001c0: f5aa f8be 6b89 d4be 63b1 21bf bb34 b4be
000001d0: 69d5 c2be b7fd a6bf def1 ccbe a393 89bf
000001e0: bb89 5bbf fe34 dcbf 6c20 b9be be42 06be
000001f0: 5533 83bf 5928 6bbf 2b35 88be c097 46bf
-1.051859 -0.6679953 -0.9949899 -0.83076876 -0.38715163 -1.2770879 -0.4275034 -0.71942806
-0.4143904 -1.3057963 -0.5460514 -0.80897385 -0.6184639 -0.7696148 -0.3736106 -0.6093585
-1.3241012 -0.71671486 -0.4676753 -0.9339381 -0.53872555 -0.5315539 -0.7987451 -0.99028474
-0.86253864 -0.9970295 -0.23878694 -1.741694 -0.7009853 -1.3706322 -0.6092974 -0.42003632
-0.63421065 -0.74334383 -0.88292724 -0.34018087 -0.8306659 -0.7009207 -0.8015484 -0.32184786
-0.39924145 -0.57283443 -0.6096103 -0.7724407 -0.67864025 -1.3478822 -0.31496093 -0.58517593
-0.92384213 -0.68847764 -0.3872483 -0.8451433 -0.6697786 -0.73878497 -0.915719 -0.49292392
-0.7238579 -0.55132455 -0.8160153 -0.8783176 -0.7013123 -0.91143066 -1.1307567 -0.50709
-0.47020373 -0.8810541 -1.2179127 -0.5717644 -0.5152063 -1.1913327 -0.4287803 -0.55224
-0.34836352 -0.51829135 -0.49018127 -0.88043034 -1.0248845 -0.67432994 -0.42420107 -1.498928
-0.4251688 -0.9816711 -0.6724124 -0.71959126 -1.20468 -0.73939687 -1.1171681 -0.49240628
-0.77984416 -0.5557787 -0.5375043 -0.89641076 -0.44628158 -1.18388 -0.63769686 -1.1606231
-1.1990604 -0.8850359 -0.8733744 -0.8765367 -0.6111685 -0.81740016 -0.55805427 -0.8228651
-1.2691638 -0.67150265 -0.51031727 -0.80433995 -0.79908866 -0.83973294 -0.3369741 -0.9074668
-0.4856793 -0.41511092 -0.63161296 -0.3519648 -0.38053444 -1.3046178 -0.4002828 -1.074818
-0.85757035 -1.7203672 -0.36157548 -0.13111398 -1.025004 -0.9185844 -0.26603064 -0.775753

convs.0.lin.weight f4 [128, 602]
00000000: f059 a7be 4f96 17be 7210 5d3c d88d 003c
00000010: 1804 31be 57a4 163e e1fa bbbd 542a 9bbc
00000020: cdc8 5f3e d019 10bd 29f6 2d3c 683a b63e
00000030: dff0 983d 39ba 10be c673 95bd bb64 f7bd
00000040: 5211 d73d bb09 cf3d 333b fc3d ea18 823c
00000050: 8359 a5bd a5c4 903e d25a 6a3e 60a2 653d
00000060: 483c 5dbd 1ba3 68bd 8988 553d 96b4 2d3e
00000070: d660 da3d b4b3 713e ed9d 213e a7c0 733e
00000080: 334b 5e3e c9bd 803d 111b 823c 2108 983d
00000090: f945 c3bb 49e8 2738 909e 61bd 5c6e c6bd
000000a0: 7bc1 73be 6d25 4dbe 4208 4b3e babe 073f
000000b0: 3545 7ebe 9821 24be 871b ef3d 0f29 3fbe
000000c0: aac2 f8bc 6de1 b73d 66c3 16bd fb07 e0bd
000000d0: cc31 773d 349e 06be 1051 8ebd 0fdb 55bd
000000e0: 89aa 5d3e 5a47 28be d662 a13d dec8 8ebe
000000f0: c9a1 863e 4999 8f3a bf29 693d 0e63 12bc
00000100: 326b 2d3e 3134 683d 9d74 2d3d ee47 9fbe
00000110: 9026 243e f2b1 12be 59bb a23d 5d47 01be
00000120: 7f80 39bc 66be 86bd ed2d a93e 0d36 cd3e
00000130: a6a9 963c de82 03be 82cc c03c 6308 87be
00000140: 7fc8 d43c fa3b 9c3d c54f 2d3b b08f 9dbb
00000150: 773b 363d 5279 0d3e eabd d83c 60a9 83be
00000160: cc7b fe3d 6d60 9bbd 9078 29bd e888 dc3d
00000170: a483 aebd 0176 2bbe 5d23 a13d f21c 9bbe
00000180: b212 a93c 9c35 6ebe 2090 963d a5fb 7c3d
00000190: f3a5 983d a3da 74bd 5e88 96be 431c 1bbe
000001a0: f8e0 b23d 75d5 ebbd 6f77 363e e18b 54bd
000001b0: 6dad 153e ffaf a5be b699 69be c169 ed3c
000001c0: a170 323d f5e2 603e c3a9 aabc b84c b5bd
000001d0: 23bd aa3d 943e 1c3d ebaa d8bc f376 99bd
000001e0: f0b0 61bd 395f 20be e560 df3d 103c da3d
000001f0: b3d4 4e3e 2302 533e d45c 913e d0fe e23d
00000200: 0230 ddbd 84b7 70bd 229d 5a3e 2a2a c1bd
00000210: 3fa3 c53e 9ffa e7bd 91f1 2d3e dc0c db3d
00000220: 5685 173d abfb e6bd 3cf6 06bd 9519 b0bd
00000230: 08fb 2dbd f3f7 ed3c 5167 39be 46f1 63be
00000240: b69a 14bd 06cd 63be c415 65bc 0858 a4be
00000250: d0a2 bd3c 331d 04be 59e7 24bd b237 fd3d
00000260: 7063 d8bd c2ea 7d3d 9604 8ebc 6661 033e
00000270: 7d21 c5bd f3a5 2d3e 28c9 4dbe ee3f 673d
00000280: 079f c7bc 72b1 5d3e b438 963e a870 4e3e
00000290: f123 bfbd c4b6 30bd c991 6e3d 449a 943b
000002a0: 90ba 743e 8867 3b3d d130 6fbe 67e7 3b3a
000002b0: 0c5a 0abe 12af d8bd 297a fc3c d4d9 6bbe
000002c0: 2f73 0bbe 4ec1 c9bd 01fc cdbd e0a7 d7bd
000002d0: 2ee7 463e 5329 5b3e 9b01 0f3e 3051 64be
000002e0: 1aaa 6f3c 1d9e 05be 4229 ba3d 2922 c63c
000002f0: 1c94 8c3d a042 00be cace 203e dc5a ba3b
00000300: 03d8 673e 0a04 7c3d 354b 463e 474f 80bb
00000310: 2894 aebd 2cd8 e73d 8316 1fbd 81f9 2fbe
00000320: fc22 67bd 25e5 913e cc23 473d 292d 69bc
00000330: feab abbc 9cdb b63a dcea 2ebe 0dbd f43c
00000340: a00b 25be e5a9 343d 4868 afbd dc70 013e
00000350: 7f4d 00bb 9b27 f33c ffb3 d73d 1df8 15ba
00000360: 6298 a83c a03f c8bb 7b19 903d 411e 30bd
00000370: fba0 ce3b dae4 a13e 1f78 aebd dc83 a73e
00000380: 97dd 5e3e f55e 4b3d 1e07 d93d 3037 473d
00000390: 78cb 873c ae50 db3e d896 82bd 0913 853d
000003a0: 5b36 04bc aea5 20be 1e54 1e3e d819 88bc
000003b0: 950a c9bc 95dd 3ebd 3862 67bd d0de f03d
000003c0: f1fc 05be 8e19 57be 1a7f 22be 4ec6 0f3e
000003d0: faf7 9cbd 7c89 ed3c 1461 00be 2d3e 343d
000003e0: 8b2d 8c3d 08b6 55be 7b29 a23d c844 17be
000003f0: bba2 2cbe 2a24 f93d 17ee 8dbc 0f83 19bd
-0.32685804 -0.14803432 0.01349269 0.007846318 -0.17286718 0.14711128 -0.09178711 -0.018941082
0.21853943 -0.035180867 0.010617771 0.35591435 0.074678175 -0.14133538 -0.07297473 -0.1207976
0.105013505 0.10109278 0.12315979 0.01588102 -0.08073714 0.28275028 0.22886208 0.056063056
-0.054012567 -0.056796174 0.052132163 0.1696342 0.10663001 0.23603708 0.157829 0.2380396
0.21708374 0.06286199 0.015882047 0.074234255 -0.005959269 4.0032235e-05 -0.055082858 -0.09689018
-0.23804276 -0.20033808 0.19827369 0.530254 -0.24831088 -0.1602844 0.11675172 -0.18668006
-0.03036626 0.089785434 -0.03680744 -0.10939022 0.060350224 -0.13146287 -0.06949055 -0.052210864
0.21647085 -0.16433468 0.078801796 -0.27887625 0.26295307 0.0010955717 0.056924578 -0.008934749
0.16935423 0.0566904 0.04234754 -0.31109565 0.16030335 -0.14325693 0.0794589 -0.12624879
-0.01132214 -0.06579284 0.3304285 0.400803 0.018391442 -0.1284289 0.023535017 -0.26373586
0.02597451 0.07628627 0.0026445251 -0.0048083887 0.044490304 0.13815811 0.026457746 -0.2571516
0.12425956 -0.07586751 -0.041374743 0.107683 -0.08521202 -0.16744234 0.07868073 -0.3029552
0.020638797 -0.23262638 0.073517084 0.061763424 0.07453527 -0.05977882 -0.29400915 -0.151475
0.08734316 -0.11515323 0.17818998 -0.05189121 0.14616938 -0.32360837 -0.22812542 0.028981091
0.043564443 0.21961577 -0.020832902 -0.088525236 0.08336856 0.038145617 -0.026448688 -0.07493391
-0.05510038 -0.15661325 0.10907153 0.10655987 0.20198326 0.20606284 0.28391135 0.11083758
-0.108001724 -0.058768764 0.21349004 -0.0943187 0.3860111 -0.11327099 0.16986682 0.10695812
0.036992393 -0.112784706 -0.03294967 -0.085986294 -0.04247573 0.029048895 -0.18105818 -0.22260007
-0.036280356 -0.22246179 -0.01398224 -0.32098413 0.023148924 -0.12901764 -0.040259693 0.12364139
-0.10565841 0.06199146 -0.017336171 0.12830123 -0.09625528 0.16957836 -0.20096266 0.056457452
-0.024367822 0.21649721 0.29340136 0.20160162 -0.09333027 -0.04314305 0.0582445 0.0045349915
0.23899293 0.045753032 -0.23358466 0.00071679655 -0.13510913 -0.10580267 0.03081997 -0.23032314
-0.13618158 -0.09851323 -0.100578316 -0.105300665 0.19424126 0.21402483 0.13965456 -0.22296596
0.014627958 -0.13048597 0.090899006 0.02418621 0.06864187 -0.12525415 0.15703884 0.005687101
0.22640996 0.06152729 0.19364627 -0.0039157006 -0.08524352 0.113205284 -0.03883983 -0.17185022
-0.056429848 0.28495136 0.048618123 -0.014231958 -0.020956036 0.0013950947 -0.17081779 0.029875303
-0.16117716 0.044107337 -0.08564812 0.12640709 -0.0019577441 0.029681971 0.105323784 -0.00057208707
0.020580474 -0.0061111003 0.0703611 -0.042997602 0.0063058115 0.31619912 -0.08519005 0.32717788
0.21764217 0.049651105 0.105970606 0.048636615 0.016576514 0.4283499 -0.063764274 0.06497771
-0.0080696 -0.15688202 0.15461776 -0.016613886 -0.024541179 -0.046598036 -0.056490153 0.11761248
-0.1308477 -0.21005842 -0.15868798 0.14040491 -0.07664485 0.028996222 -0.12537032 0.044004608
0.06844624 -0.2087022 0.07918068 -0.14772332 -0.16858952 0.12165101 -0.017325444 -0.037478503

convs.1.bias f4 [41]
00000000: f4ca 673f 50b3 f9be 37a4 27bf 0153 febe
00000010: 639d 5dbf 4ec4 29be 4b1f b8be d6f7 11bf
00000020: 2f28 da3e e274 40bf 444c ad3d bb4d aebe
00000030: 28a2 5dbf 8dc0 f9bd 96be 6e3d 6371 8b3f
00000040: 7913 9fbf 5f61 42bf ba3e 813d 9519 3abd
00000050: abd9 4cbf 2092 81be f76f ea3f 0567 5b3f
00000060: 5fcc 16c0 411f 63bf 79b6 d9be 6bba 363f
00000070: abc6 4e3e e28b 42be e791 42bf 1bde 8cbd
00000080: 2599 0cbf a138 8b3e 4f55 e4be 5374 92be
00000090: 0721 dfbe 1e22 3cbe ccd7 df3e bcbb 603f
000000a0: 290f afbe
0.90544057 -0.48769617 -0.65484947 -0.49672702 -0.8656828 -0.1657879 -0.35961375 -0.5701879
0.42608783 -0.7517835 0.08461812 -0.3404368 -0.86575556 -0.12194929 0.058287226 1.0893978
-1.2427818 -0.75929826 0.06310792 -0.045434553 -0.80019635 -0.25306797 1.8315419 0.8570407
-2.3562238 -0.88719565 -0.42522028 0.713782 0.20192973 -0.18998674 -0.7600388 -0.06878301
-0.5492118 0.27191642 -0.44596335 -0.28604373 -0.43579885 -0.1837239 0.43719327 0.8778646
-0.34191254

convs.1.lin.weight f4 [41, 128]
00000000: f3ad 813d 224a 24bd 0b5a 933d 574b 12bc
00000010: 5da3 333d a398 cf3c 398e 2a3c 0da7 9dbd
00000020: 096e 6ebd f7cd 0ebe 9e5d 023d b8d7 563d
00000030: 7a41 ddbd 551d aabd fc06 fc3d aeb5 b03d
00000040: 9978 20bc 967b d3bc be78 603c 6953 633d
00000050: dccf 61bd 8bcc d63d 32b9 95bc 3d47 c7b9
00000060: 9e34 e33b 7151 223e 8443 083e 9401 d63c
00000070: af24 bf3c 2e5d 353c 80ab bfbc 7fb7 183e
00000080: 971c 993d bb21 ef3a d76a 183d c0ad f7bc
00000090: dd2d db3c 835b 9a3c acf4 01bd 6622 3c3c
000000a0: 26cf 7abd 5edc f6bd 0ac5 d1bc a186 6f3d
000000b0: 3fb6 80bd 8dc7 c23c 4264 733b 38ba c6bc
000000c0: d41e e1bd 8eeb bb3d c2ce 4bbe 54bb 083e
000000d0: 6304 ee3d bad0 e3bd f07e 283e ee54 03be
000000e0: 1e45 803d 8e45 a83c 130b e6bb 075f 033e
000000f0: 6702 f1bd f528 afbd a264 553c c9b1 0abe
00000100: fbf6 70bc a888 403a edd1 5ebc 62a2 9d3d
00000110: a944 053e f92d 5fbd 6449 b93c 306e 9dbd
00000120: a109 043d 0b14 c5bd db20 09bd 3f0b 22be
00000130: 61e7 303b 3ffb 933c 7d15 233d 3bdc 903d
00000140: 9f1c 0a3e f11f 433d 6345 5ebc ac02 8f3c
00000150: 505a c6bb 8eaf bcbc 060e 06be b377 c93c
00000160: 06bf c73d 1953 043e fbd8 763d 86a2 fabc
00000170: d504 63be 3788 37bd 1d72 a8bc e610 86bd
00000180: 8ecd 373d edaa b0bd e9a4 35be ae42 3bbd
00000190: 3897 983d 491c 273d 1955 393e 82a2 cd3d
000001a0: b4d5 343d 8b60 21bc 0c85 a13b 36dd 8a3d
000001b0: f3b0 2dbd 9516 57bd ec76 023e df3a 98bd
000001c0: e789 9fbd a0a6 2abe 1dd5 e3bd 78ce a5bd
000001d0: ee77 8fbd 167e 12be 1bbc 5b3d 5687 a43d
000001e0: ce9a b73d 068d 84bb fab3 dd3d eeb6 f63d
000001f0: 0ffd 413d ff6c e1bd 0415 c1bb 5581 403d
00000200: dbf5 1c3e 0b11 f8bd 7e8c a1bd ca95 1b3e
00000210: f2e1 463e 49db 8a3d fea2 6b3d 3377 993e
00000220: 3c54 e0bd 5b8e 723d 759c 1c3e a808 483e
00000230: f534 37be b5c2 48bd 6c64 6ebd 5e00 2d3e
00000240: ccd0 023c a4a8 92be 1173 0ebe 3aef 23be
00000250: f840 313d c5b5 9e3d a3af 5d3d fefc 8e3d
00000260: da48 c33d 6603 9d3d e8b5 9a3d e2f7 f03d
00000270: 5214 6dbd e8b8 9e3a 1964 7d3c 42f5 5b3d
00000280: 408a 50bd 8398 2fbe f1b8 093e a96d eabc
00000290: 3b6a 7f3d 78a1 8dbd 3680 0dbe a3e2 8bbd
000002a0: ea64 85bd b895 8e3d d90d c43d 67f9 0a3d
000002b0: 04b9 6dbd 4d75 fcbd 2da6 a7bd d5a7 edbd
000002c0: 91c3 383e f0a8 1a3d cb6a babd 0b05 4ebd
000002d0: b941 82bd 92a6 a6be 0925 593d e99d 9ebd
000002e0: a0c9 27be 1fd3 b9bc 14cc fabd 61bf b5bd
000002f0: fda7 77be 4cb5 fbbc e0c1 3f3e 693b 003e
00000300: 253b 7fbd 9d3f 14be 3a7e 97bc beda 0f3e
00000310: 4248 cf3c ca50 573c da9a 3b3b 3664 893d
00000320: c9bb a6bb 688c 3dbb 371f 833d 4db0 363d
00000330: 824d 173d d37e a03d d2d4 84bc 8f25 d73d
00000340: 3daf 173e 41df 193e c0e9 82bd 0ac9 513d
00000350: 6555 2cbe 1b41 d03c 46f1 863c d7a8 19bd
00000360: 9de2 173d 696d 393e 8968 febd eb92 09bd
00000370: b7b0 603d 29df 963d 5d18 0fbc a3fb a7bd
00000380: 5ae5 153e 869d 41be 50d9 963d 2025 d0bc
00000390: 6700 c13d 36c5 0d3d b305 143e e752 4ebd
000003a0: 2668 28bd ae73 8dbd 3929 bd3d 2d41 573c
000003b0: 193a 4ebd 8924 92bc 07a8 cd3d 0da6 2b3d
000003c0: 7c9b 86bc 4443 02be da7e 61be e1fc 62be
000003d0: e965 613e 57f4 5b3e 076e 5bbd 07d8 cdbc
000003e0: 01dc aabb ccc2 5e3e ba4f 283e 90a2 81be
000003f0: cff1 43be c9de 77bd 11e5 c4bd 8775 e43d
0.06332006 -0.04010976 0.07194909 -0.008929095 0.043856967 0.025341338 0.010409885 -0.07697878
-0.058210406 -0.13945757 0.03182756 0.05245182 -0.10803504 -0.08306376 0.1230602 0.08628403
-0.009794378 -0.025815766 0.013700662 0.055499468 -0.05512987 0.10488232 -0.018276785 -0.00038009314
0.0069337627 0.1585138 0.13307005 0.0261238 0.023332922 0.011069579 -0.023397207 0.14913748
0.07476156 0.0018244305 0.037211265 -0.030234218 0.026755268 0.018842464 -0.031727478 0.011482811
-0.06123271 -0.120537505 -0.02560665 0.058478 -0.06284761 0.023776794 0.0037138616 -0.024258718
-0.10992208 0.09175788 -0.1990309 0.1335271 0.116219305 -0.11123796 0.16454673 -0.12825367
0.06263183 0.020540979 -0.007020363 0.12829219 -0.11768036 -0.08552734 0.013024481 -0.13544382
-0.014707322 0.0007344582 -0.013599855 0.07696988 0.13014473 -0.054487202 0.022618003 -0.07687032
0.032235745 -0.096229635 -0.0334786 -0.15824603 0.0026993381 0.01806414 0.039815415 0.07073256
0.1348748 0.047637884 -0.013566348 0.017457329 -0.0060532466 -0.02303293 -0.13091287 0.02459321
0.09753232 0.12922324 0.060265522 -0.030595075 -0.22169812 -0.04480764 -0.020562226 -0.06546192
0.044873767 -0.086263515 -0.1773869 -0.045717888 0.07450718 0.04079846 0.18098868 0.100407615
0.044149116 -0.009849678 0.0049291905 0.06780474 -0.04240508 -0.05251177 0.12740678 -0.07433104
-0.07789975 -0.16665125 -0.111246325 -0.080960214 -0.07005297 -0.1430591 0.05364619 0.08033626
0.089650735 -0.0040451316 0.108253434 0.1204661 0.047360476 -0.110071175 -0.005892398 0.04699834
0.15328161 -0.12112626 -0.07888125 0.15193859 0.19422129 0.067801066 0.05752849 0.29973754
-0.109535664 0.059217792 0.15294059 0.19534552 -0.17891295 -0.049013812 -0.05820124 0.16894671
0.007984351 -0.28644288 -0.13911082 -0.16009226 0.04327485 0.077495135 0.05412258 0.06981848
0.0953538 0.07666664 0.07554227 0.1176603 -0.057880707 0.001210955 0.01546576 0.053700693
-0.050913095 -0.17148022 0.13449456 -0.028616743 0.06235717 -0.06915563 -0.1381844 -0.06830337
-0.065133885 0.0696215 0.09572954 0.033929255 -0.058037773 -0.12327061 -0.081859924 -0.11604277
0.18043353 0.037758768 -0.091024004 -0.050297778 -0.06360192 -0.32548958 0.053013835 -0.07744963
-0.16385508 -0.022683678 -0.12245956 -0.08874393 -0.24185176 -0.030726098 0.18726301 0.12522663
-0.062312264 -0.14477392 -0.018492807 0.14048287 0.02530301 0.01314182 0.0028626234 0.06708567
-0.0050883037 -0.00289228 0.06402438 0.044601727 0.03693915 0.0783669 -0.016214762 0.105052106
0.14812942 0.15026571 -0.063922405 0.051217116 -0.1682945 0.02542167 0.01647247 -0.037514534
0.03708135 0.18108143 -0.12422282 -0.033587378 0.05485603 0.07366783 -0.008733836 -0.08202293
0.14638272 -0.18907747 0.07365668 -0.025408328 0.09423905 0.034611903 0.14455299 -0.05037203
-0.04111495 -0.0690683 0.09236378 0.013138098 -0.050348375 -0.017839687 0.10041814 0.041906405
-0.016431563 -0.12720972 -0.22021046 -0.22166778 0.22011532 0.21479927 -0.053571727 -0.025127424
-0.005214215 0.21753997 0.16436663 -0.25319338 -0.19135211 -0.0605152 -0.096140034 0.11155229
